<?xml version="1.0" ?>
<net name="torch-jit-export" version="11">
	<layers>
		<layer id="0" name="input" type="Parameter" version="opset1">
			<data element_type="f32" shape="?,50000"/>
			<rt_info>
				<attribute name="fused_names" value="input" version="0"/>
				<attribute name="old_api_map_element_type" value="f16" version="0"/>
			</rt_info>
			<output>
				<port id="0" names="input" precision="FP32">
					<dim>-1</dim>
					<dim>50000</dim>
				</port>
			</output>
		</layer>
		<layer id="1" name="Constant_131171_compressed" type="Const" version="opset1">
			<data element_type="f16" offset="0" shape="1, 1, 256" size="512"/>
			<output>
				<port id="0" precision="FP16">
					<dim>1</dim>
					<dim>1</dim>
					<dim>256</dim>
				</port>
			</output>
		</layer>
		<layer id="2" name="Constant_131171" type="Convert" version="opset1">
			<data destination_type="f32"/>
			<rt_info>
				<attribute name="decompression" version="0"/>
			</rt_info>
			<input>
				<port id="0" precision="FP16">
					<dim>1</dim>
					<dim>1</dim>
					<dim>256</dim>
				</port>
			</input>
			<output>
				<port id="1" precision="FP32">
					<dim>1</dim>
					<dim>1</dim>
					<dim>256</dim>
				</port>
			</output>
		</layer>
		<layer id="3" name="Constant_130928_compressed" type="Const" version="opset1">
			<data element_type="f16" offset="512" shape="1, 1, 1024" size="2048"/>
			<output>
				<port id="0" precision="FP16">
					<dim>1</dim>
					<dim>1</dim>
					<dim>1024</dim>
				</port>
			</output>
		</layer>
		<layer id="4" name="Constant_130928" type="Convert" version="opset1">
			<data destination_type="f32"/>
			<rt_info>
				<attribute name="decompression" version="0"/>
			</rt_info>
			<input>
				<port id="0" precision="FP16">
					<dim>1</dim>
					<dim>1</dim>
					<dim>1024</dim>
				</port>
			</input>
			<output>
				<port id="1" precision="FP32">
					<dim>1</dim>
					<dim>1</dim>
					<dim>1024</dim>
				</port>
			</output>
		</layer>
		<layer id="5" name="Constant_833" type="Const" version="opset1">
			<data element_type="i64" offset="2560" shape="1" size="8"/>
			<rt_info>
				<attribute name="fused_names" value="Constant_833" version="0"/>
			</rt_info>
			<output>
				<port id="0" precision="I64">
					<dim>1</dim>
				</port>
			</output>
		</layer>
		<layer id="6" name="input.1" type="Unsqueeze" version="opset1">
			<rt_info>
				<attribute name="fused_names" value="input.1" version="0"/>
			</rt_info>
			<input>
				<port id="0" precision="FP32">
					<dim>-1</dim>
					<dim>50000</dim>
				</port>
				<port id="1" precision="I64">
					<dim>1</dim>
				</port>
			</input>
			<output>
				<port id="2" names="input.1" precision="FP32">
					<dim>-1</dim>
					<dim>1</dim>
					<dim>50000</dim>
				</port>
			</output>
		</layer>
		<layer id="7" name="wav2vec2.feature_extractor.conv_layers.0.conv.weight_compressed" type="Const" version="opset1">
			<data element_type="f16" offset="2568" shape="512, 1, 10" size="10240"/>
			<output>
				<port id="0" precision="FP16">
					<dim>512</dim>
					<dim>1</dim>
					<dim>10</dim>
				</port>
			</output>
		</layer>
		<layer id="8" name="wav2vec2.feature_extractor.conv_layers.0.conv.weight" type="Convert" version="opset1">
			<data destination_type="f32"/>
			<rt_info>
				<attribute name="decompression" version="0"/>
				<attribute name="fused_names" value="wav2vec2.feature_extractor.conv_layers.0.conv.weight" version="0"/>
			</rt_info>
			<input>
				<port id="0" precision="FP16">
					<dim>512</dim>
					<dim>1</dim>
					<dim>10</dim>
				</port>
			</input>
			<output>
				<port id="1" names="wav2vec2.feature_extractor.conv_layers.0.conv.weight" precision="FP32">
					<dim>512</dim>
					<dim>1</dim>
					<dim>10</dim>
				</port>
			</output>
		</layer>
		<layer id="9" name="Convolution_835" type="Convolution" version="opset1">
			<data auto_pad="explicit" dilations="1" pads_begin="0" pads_end="0" strides="5"/>
			<rt_info>
				<attribute name="fused_names" value="Convolution_835" version="0"/>
			</rt_info>
			<input>
				<port id="0" precision="FP32">
					<dim>-1</dim>
					<dim>1</dim>
					<dim>50000</dim>
				</port>
				<port id="1" precision="FP32">
					<dim>512</dim>
					<dim>1</dim>
					<dim>10</dim>
				</port>
			</input>
			<output>
				<port id="2" precision="FP32">
					<dim>-1</dim>
					<dim>512</dim>
					<dim>9999</dim>
				</port>
			</output>
		</layer>
		<layer id="10" name="Reshape_855_compressed" type="Const" version="opset1">
			<data element_type="f16" offset="12808" shape="1, 512, 1" size="1024"/>
			<output>
				<port id="0" precision="FP16">
					<dim>1</dim>
					<dim>512</dim>
					<dim>1</dim>
				</port>
			</output>
		</layer>
		<layer id="11" name="Reshape_855" type="Convert" version="opset1">
			<data destination_type="f32"/>
			<rt_info>
				<attribute name="decompression" version="0"/>
			</rt_info>
			<input>
				<port id="0" precision="FP16">
					<dim>1</dim>
					<dim>512</dim>
					<dim>1</dim>
				</port>
			</input>
			<output>
				<port id="1" precision="FP32">
					<dim>1</dim>
					<dim>512</dim>
					<dim>1</dim>
				</port>
			</output>
		</layer>
		<layer id="12" name="onnx::Transpose_428" type="Add" version="opset1">
			<data auto_broadcast="numpy"/>
			<rt_info>
				<attribute name="fused_names" value="Concat_854, Reshape_855, onnx::Transpose_428" version="0"/>
			</rt_info>
			<input>
				<port id="0" precision="FP32">
					<dim>-1</dim>
					<dim>512</dim>
					<dim>9999</dim>
				</port>
				<port id="1" precision="FP32">
					<dim>1</dim>
					<dim>512</dim>
					<dim>1</dim>
				</port>
			</input>
			<output>
				<port id="2" names="onnx::Transpose_428" precision="FP32">
					<dim>-1</dim>
					<dim>512</dim>
					<dim>9999</dim>
				</port>
			</output>
		</layer>
		<layer id="13" name="Constant_883" type="Const" version="opset1">
			<data element_type="i64" offset="13832" shape="3" size="24"/>
			<rt_info>
				<attribute name="fused_names" value="Constant_883" version="0"/>
			</rt_info>
			<output>
				<port id="0" precision="I64">
					<dim>3</dim>
				</port>
			</output>
		</layer>
		<layer id="14" name="input.3" type="Transpose" version="opset1">
			<rt_info>
				<attribute name="fused_names" value="input.3" version="0"/>
			</rt_info>
			<input>
				<port id="0" precision="FP32">
					<dim>-1</dim>
					<dim>512</dim>
					<dim>9999</dim>
				</port>
				<port id="1" precision="I64">
					<dim>3</dim>
				</port>
			</input>
			<output>
				<port id="2" names="input.3" precision="FP32">
					<dim>-1</dim>
					<dim>9999</dim>
					<dim>512</dim>
				</port>
			</output>
		</layer>
		<layer id="15" name="Constant_885" type="Const" version="opset1">
			<data element_type="i64" offset="13856" shape="1" size="8"/>
			<rt_info>
				<attribute name="fused_names" value="Constant_885" version="0"/>
			</rt_info>
			<output>
				<port id="0" precision="I64">
					<dim>1</dim>
				</port>
			</output>
		</layer>
		<layer id="16" name="onnx::Mul_438" type="MVN" version="opset6">
			<data eps="9.9999997473787516e-06" eps_mode="INSIDE_SQRT" normalize_variance="true"/>
			<rt_info>
				<attribute name="fused_names" value="onnx::Add_434, onnx::Div_437, onnx::Mul_438, onnx::Pow_431, onnx::ReduceMean_433, onnx::Sqrt_436, onnx::Sub_430" version="0"/>
			</rt_info>
			<input>
				<port id="0" precision="FP32">
					<dim>-1</dim>
					<dim>9999</dim>
					<dim>512</dim>
				</port>
				<port id="1" precision="I64">
					<dim>1</dim>
				</port>
			</input>
			<output>
				<port id="2" names="onnx::Mul_438" precision="FP32">
					<dim>-1</dim>
					<dim>9999</dim>
					<dim>512</dim>
				</port>
			</output>
		</layer>
		<layer id="17" name="Constant_130912_compressed" type="Const" version="opset1">
			<data element_type="f16" offset="13864" shape="1, 1, 512" size="1024"/>
			<output>
				<port id="0" precision="FP16">
					<dim>1</dim>
					<dim>1</dim>
					<dim>512</dim>
				</port>
			</output>
		</layer>
		<layer id="18" name="Constant_130912" type="Convert" version="opset1">
			<data destination_type="f32"/>
			<rt_info>
				<attribute name="decompression" version="0"/>
			</rt_info>
			<input>
				<port id="0" precision="FP16">
					<dim>1</dim>
					<dim>1</dim>
					<dim>512</dim>
				</port>
			</input>
			<output>
				<port id="1" precision="FP32">
					<dim>1</dim>
					<dim>1</dim>
					<dim>512</dim>
				</port>
			</output>
		</layer>
		<layer id="19" name="onnx::Add_439" type="Multiply" version="opset1">
			<data auto_broadcast="numpy"/>
			<rt_info>
				<attribute name="fused_names" value="onnx::Add_439" version="0"/>
			</rt_info>
			<input>
				<port id="0" precision="FP32">
					<dim>-1</dim>
					<dim>9999</dim>
					<dim>512</dim>
				</port>
				<port id="1" precision="FP32">
					<dim>1</dim>
					<dim>1</dim>
					<dim>512</dim>
				</port>
			</input>
			<output>
				<port id="2" names="onnx::Add_439" precision="FP32">
					<dim>-1</dim>
					<dim>9999</dim>
					<dim>512</dim>
				</port>
			</output>
		</layer>
		<layer id="20" name="Constant_130913_compressed" type="Const" version="opset1">
			<data element_type="f16" offset="14888" shape="1, 1, 512" size="1024"/>
			<output>
				<port id="0" precision="FP16">
					<dim>1</dim>
					<dim>1</dim>
					<dim>512</dim>
				</port>
			</output>
		</layer>
		<layer id="21" name="Constant_130913" type="Convert" version="opset1">
			<data destination_type="f32"/>
			<rt_info>
				<attribute name="decompression" version="0"/>
			</rt_info>
			<input>
				<port id="0" precision="FP16">
					<dim>1</dim>
					<dim>1</dim>
					<dim>512</dim>
				</port>
			</input>
			<output>
				<port id="1" precision="FP32">
					<dim>1</dim>
					<dim>1</dim>
					<dim>512</dim>
				</port>
			</output>
		</layer>
		<layer id="22" name="onnx::Transpose_440" type="Add" version="opset1">
			<data auto_broadcast="numpy"/>
			<rt_info>
				<attribute name="fused_names" value="onnx::Transpose_440" version="0"/>
			</rt_info>
			<input>
				<port id="0" precision="FP32">
					<dim>-1</dim>
					<dim>9999</dim>
					<dim>512</dim>
				</port>
				<port id="1" precision="FP32">
					<dim>1</dim>
					<dim>1</dim>
					<dim>512</dim>
				</port>
			</input>
			<output>
				<port id="2" names="onnx::Transpose_440" precision="FP32">
					<dim>-1</dim>
					<dim>9999</dim>
					<dim>512</dim>
				</port>
			</output>
		</layer>
		<layer id="23" name="Constant_898" type="Const" version="opset1">
			<data element_type="i64" offset="13832" shape="3" size="24"/>
			<rt_info>
				<attribute name="fused_names" value="Constant_898" version="0"/>
			</rt_info>
			<output>
				<port id="0" precision="I64">
					<dim>3</dim>
				</port>
			</output>
		</layer>
		<layer id="24" name="onnx::Div_441" type="Transpose" version="opset1">
			<rt_info>
				<attribute name="fused_names" value="onnx::Div_441" version="0"/>
			</rt_info>
			<input>
				<port id="0" precision="FP32">
					<dim>-1</dim>
					<dim>9999</dim>
					<dim>512</dim>
				</port>
				<port id="1" precision="I64">
					<dim>3</dim>
				</port>
			</input>
			<output>
				<port id="2" names="onnx::Div_441" precision="FP32">
					<dim>-1</dim>
					<dim>512</dim>
					<dim>9999</dim>
				</port>
			</output>
		</layer>
		<layer id="25" name="input.7" type="Gelu" version="opset7">
			<data approximation_mode="ERF"/>
			<rt_info>
				<attribute name="fused_names" value="input.7, onnx::Add_444, onnx::Erf_443, onnx::Mul_446, onnx::Mul_447" version="0"/>
			</rt_info>
			<input>
				<port id="0" precision="FP32">
					<dim>-1</dim>
					<dim>512</dim>
					<dim>9999</dim>
				</port>
			</input>
			<output>
				<port id="1" names="input.7" precision="FP32">
					<dim>-1</dim>
					<dim>512</dim>
					<dim>9999</dim>
				</port>
			</output>
		</layer>
		<layer id="26" name="wav2vec2.feature_extractor.conv_layers.1.conv.weight_compressed" type="Const" version="opset1">
			<data element_type="f16" offset="15912" shape="512, 512, 3" size="1572864"/>
			<output>
				<port id="0" precision="FP16">
					<dim>512</dim>
					<dim>512</dim>
					<dim>3</dim>
				</port>
			</output>
		</layer>
		<layer id="27" name="wav2vec2.feature_extractor.conv_layers.1.conv.weight" type="Convert" version="opset1">
			<data destination_type="f32"/>
			<rt_info>
				<attribute name="decompression" version="0"/>
				<attribute name="fused_names" value="wav2vec2.feature_extractor.conv_layers.1.conv.weight" version="0"/>
			</rt_info>
			<input>
				<port id="0" precision="FP16">
					<dim>512</dim>
					<dim>512</dim>
					<dim>3</dim>
				</port>
			</input>
			<output>
				<port id="1" names="wav2vec2.feature_extractor.conv_layers.1.conv.weight" precision="FP32">
					<dim>512</dim>
					<dim>512</dim>
					<dim>3</dim>
				</port>
			</output>
		</layer>
		<layer id="28" name="Convolution_908" type="Convolution" version="opset1">
			<data auto_pad="explicit" dilations="1" pads_begin="0" pads_end="0" strides="2"/>
			<rt_info>
				<attribute name="fused_names" value="Convolution_908" version="0"/>
			</rt_info>
			<input>
				<port id="0" precision="FP32">
					<dim>-1</dim>
					<dim>512</dim>
					<dim>9999</dim>
				</port>
				<port id="1" precision="FP32">
					<dim>512</dim>
					<dim>512</dim>
					<dim>3</dim>
				</port>
			</input>
			<output>
				<port id="2" precision="FP32">
					<dim>-1</dim>
					<dim>512</dim>
					<dim>4999</dim>
				</port>
			</output>
		</layer>
		<layer id="29" name="Reshape_928_compressed" type="Const" version="opset1">
			<data element_type="f16" offset="1588776" shape="1, 512, 1" size="1024"/>
			<output>
				<port id="0" precision="FP16">
					<dim>1</dim>
					<dim>512</dim>
					<dim>1</dim>
				</port>
			</output>
		</layer>
		<layer id="30" name="Reshape_928" type="Convert" version="opset1">
			<data destination_type="f32"/>
			<rt_info>
				<attribute name="decompression" version="0"/>
			</rt_info>
			<input>
				<port id="0" precision="FP16">
					<dim>1</dim>
					<dim>512</dim>
					<dim>1</dim>
				</port>
			</input>
			<output>
				<port id="1" precision="FP32">
					<dim>1</dim>
					<dim>512</dim>
					<dim>1</dim>
				</port>
			</output>
		</layer>
		<layer id="31" name="onnx::Transpose_450" type="Add" version="opset1">
			<data auto_broadcast="numpy"/>
			<rt_info>
				<attribute name="fused_names" value="Concat_927, Reshape_928, onnx::Transpose_450" version="0"/>
			</rt_info>
			<input>
				<port id="0" precision="FP32">
					<dim>-1</dim>
					<dim>512</dim>
					<dim>4999</dim>
				</port>
				<port id="1" precision="FP32">
					<dim>1</dim>
					<dim>512</dim>
					<dim>1</dim>
				</port>
			</input>
			<output>
				<port id="2" names="onnx::Transpose_450" precision="FP32">
					<dim>-1</dim>
					<dim>512</dim>
					<dim>4999</dim>
				</port>
			</output>
		</layer>
		<layer id="32" name="Constant_956" type="Const" version="opset1">
			<data element_type="i64" offset="13832" shape="3" size="24"/>
			<rt_info>
				<attribute name="fused_names" value="Constant_956" version="0"/>
			</rt_info>
			<output>
				<port id="0" precision="I64">
					<dim>3</dim>
				</port>
			</output>
		</layer>
		<layer id="33" name="input.11" type="Transpose" version="opset1">
			<rt_info>
				<attribute name="fused_names" value="input.11" version="0"/>
			</rt_info>
			<input>
				<port id="0" precision="FP32">
					<dim>-1</dim>
					<dim>512</dim>
					<dim>4999</dim>
				</port>
				<port id="1" precision="I64">
					<dim>3</dim>
				</port>
			</input>
			<output>
				<port id="2" names="input.11" precision="FP32">
					<dim>-1</dim>
					<dim>4999</dim>
					<dim>512</dim>
				</port>
			</output>
		</layer>
		<layer id="34" name="Constant_958" type="Const" version="opset1">
			<data element_type="i64" offset="13856" shape="1" size="8"/>
			<rt_info>
				<attribute name="fused_names" value="Constant_958" version="0"/>
			</rt_info>
			<output>
				<port id="0" precision="I64">
					<dim>1</dim>
				</port>
			</output>
		</layer>
		<layer id="35" name="onnx::Mul_460" type="MVN" version="opset6">
			<data eps="9.9999997473787516e-06" eps_mode="INSIDE_SQRT" normalize_variance="true"/>
			<rt_info>
				<attribute name="fused_names" value="onnx::Add_456, onnx::Div_459, onnx::Mul_460, onnx::Pow_453, onnx::ReduceMean_455, onnx::Sqrt_458, onnx::Sub_452" version="0"/>
			</rt_info>
			<input>
				<port id="0" precision="FP32">
					<dim>-1</dim>
					<dim>4999</dim>
					<dim>512</dim>
				</port>
				<port id="1" precision="I64">
					<dim>1</dim>
				</port>
			</input>
			<output>
				<port id="2" names="onnx::Mul_460" precision="FP32">
					<dim>-1</dim>
					<dim>4999</dim>
					<dim>512</dim>
				</port>
			</output>
		</layer>
		<layer id="36" name="Constant_130914_compressed" type="Const" version="opset1">
			<data element_type="f16" offset="1589800" shape="1, 1, 512" size="1024"/>
			<output>
				<port id="0" precision="FP16">
					<dim>1</dim>
					<dim>1</dim>
					<dim>512</dim>
				</port>
			</output>
		</layer>
		<layer id="37" name="Constant_130914" type="Convert" version="opset1">
			<data destination_type="f32"/>
			<rt_info>
				<attribute name="decompression" version="0"/>
			</rt_info>
			<input>
				<port id="0" precision="FP16">
					<dim>1</dim>
					<dim>1</dim>
					<dim>512</dim>
				</port>
			</input>
			<output>
				<port id="1" precision="FP32">
					<dim>1</dim>
					<dim>1</dim>
					<dim>512</dim>
				</port>
			</output>
		</layer>
		<layer id="38" name="onnx::Add_461" type="Multiply" version="opset1">
			<data auto_broadcast="numpy"/>
			<rt_info>
				<attribute name="fused_names" value="onnx::Add_461" version="0"/>
			</rt_info>
			<input>
				<port id="0" precision="FP32">
					<dim>-1</dim>
					<dim>4999</dim>
					<dim>512</dim>
				</port>
				<port id="1" precision="FP32">
					<dim>1</dim>
					<dim>1</dim>
					<dim>512</dim>
				</port>
			</input>
			<output>
				<port id="2" names="onnx::Add_461" precision="FP32">
					<dim>-1</dim>
					<dim>4999</dim>
					<dim>512</dim>
				</port>
			</output>
		</layer>
		<layer id="39" name="Constant_130915_compressed" type="Const" version="opset1">
			<data element_type="f16" offset="1590824" shape="1, 1, 512" size="1024"/>
			<output>
				<port id="0" precision="FP16">
					<dim>1</dim>
					<dim>1</dim>
					<dim>512</dim>
				</port>
			</output>
		</layer>
		<layer id="40" name="Constant_130915" type="Convert" version="opset1">
			<data destination_type="f32"/>
			<rt_info>
				<attribute name="decompression" version="0"/>
			</rt_info>
			<input>
				<port id="0" precision="FP16">
					<dim>1</dim>
					<dim>1</dim>
					<dim>512</dim>
				</port>
			</input>
			<output>
				<port id="1" precision="FP32">
					<dim>1</dim>
					<dim>1</dim>
					<dim>512</dim>
				</port>
			</output>
		</layer>
		<layer id="41" name="onnx::Transpose_462" type="Add" version="opset1">
			<data auto_broadcast="numpy"/>
			<rt_info>
				<attribute name="fused_names" value="onnx::Transpose_462" version="0"/>
			</rt_info>
			<input>
				<port id="0" precision="FP32">
					<dim>-1</dim>
					<dim>4999</dim>
					<dim>512</dim>
				</port>
				<port id="1" precision="FP32">
					<dim>1</dim>
					<dim>1</dim>
					<dim>512</dim>
				</port>
			</input>
			<output>
				<port id="2" names="onnx::Transpose_462" precision="FP32">
					<dim>-1</dim>
					<dim>4999</dim>
					<dim>512</dim>
				</port>
			</output>
		</layer>
		<layer id="42" name="Constant_971" type="Const" version="opset1">
			<data element_type="i64" offset="13832" shape="3" size="24"/>
			<rt_info>
				<attribute name="fused_names" value="Constant_971" version="0"/>
			</rt_info>
			<output>
				<port id="0" precision="I64">
					<dim>3</dim>
				</port>
			</output>
		</layer>
		<layer id="43" name="onnx::Div_463" type="Transpose" version="opset1">
			<rt_info>
				<attribute name="fused_names" value="onnx::Div_463" version="0"/>
			</rt_info>
			<input>
				<port id="0" precision="FP32">
					<dim>-1</dim>
					<dim>4999</dim>
					<dim>512</dim>
				</port>
				<port id="1" precision="I64">
					<dim>3</dim>
				</port>
			</input>
			<output>
				<port id="2" names="onnx::Div_463" precision="FP32">
					<dim>-1</dim>
					<dim>512</dim>
					<dim>4999</dim>
				</port>
			</output>
		</layer>
		<layer id="44" name="input.15" type="Gelu" version="opset7">
			<data approximation_mode="ERF"/>
			<rt_info>
				<attribute name="fused_names" value="input.15, onnx::Add_466, onnx::Erf_465, onnx::Mul_468, onnx::Mul_469" version="0"/>
			</rt_info>
			<input>
				<port id="0" precision="FP32">
					<dim>-1</dim>
					<dim>512</dim>
					<dim>4999</dim>
				</port>
			</input>
			<output>
				<port id="1" names="input.15" precision="FP32">
					<dim>-1</dim>
					<dim>512</dim>
					<dim>4999</dim>
				</port>
			</output>
		</layer>
		<layer id="45" name="wav2vec2.feature_extractor.conv_layers.2.conv.weight_compressed" type="Const" version="opset1">
			<data element_type="f16" offset="1591848" shape="512, 512, 3" size="1572864"/>
			<output>
				<port id="0" precision="FP16">
					<dim>512</dim>
					<dim>512</dim>
					<dim>3</dim>
				</port>
			</output>
		</layer>
		<layer id="46" name="wav2vec2.feature_extractor.conv_layers.2.conv.weight" type="Convert" version="opset1">
			<data destination_type="f32"/>
			<rt_info>
				<attribute name="decompression" version="0"/>
				<attribute name="fused_names" value="wav2vec2.feature_extractor.conv_layers.2.conv.weight" version="0"/>
			</rt_info>
			<input>
				<port id="0" precision="FP16">
					<dim>512</dim>
					<dim>512</dim>
					<dim>3</dim>
				</port>
			</input>
			<output>
				<port id="1" names="wav2vec2.feature_extractor.conv_layers.2.conv.weight" precision="FP32">
					<dim>512</dim>
					<dim>512</dim>
					<dim>3</dim>
				</port>
			</output>
		</layer>
		<layer id="47" name="Convolution_981" type="Convolution" version="opset1">
			<data auto_pad="explicit" dilations="1" pads_begin="0" pads_end="0" strides="2"/>
			<rt_info>
				<attribute name="fused_names" value="Convolution_981" version="0"/>
			</rt_info>
			<input>
				<port id="0" precision="FP32">
					<dim>-1</dim>
					<dim>512</dim>
					<dim>4999</dim>
				</port>
				<port id="1" precision="FP32">
					<dim>512</dim>
					<dim>512</dim>
					<dim>3</dim>
				</port>
			</input>
			<output>
				<port id="2" precision="FP32">
					<dim>-1</dim>
					<dim>512</dim>
					<dim>2499</dim>
				</port>
			</output>
		</layer>
		<layer id="48" name="Reshape_1001_compressed" type="Const" version="opset1">
			<data element_type="f16" offset="3164712" shape="1, 512, 1" size="1024"/>
			<output>
				<port id="0" precision="FP16">
					<dim>1</dim>
					<dim>512</dim>
					<dim>1</dim>
				</port>
			</output>
		</layer>
		<layer id="49" name="Reshape_1001" type="Convert" version="opset1">
			<data destination_type="f32"/>
			<rt_info>
				<attribute name="decompression" version="0"/>
			</rt_info>
			<input>
				<port id="0" precision="FP16">
					<dim>1</dim>
					<dim>512</dim>
					<dim>1</dim>
				</port>
			</input>
			<output>
				<port id="1" precision="FP32">
					<dim>1</dim>
					<dim>512</dim>
					<dim>1</dim>
				</port>
			</output>
		</layer>
		<layer id="50" name="onnx::Transpose_472" type="Add" version="opset1">
			<data auto_broadcast="numpy"/>
			<rt_info>
				<attribute name="fused_names" value="Concat_1000, Reshape_1001, onnx::Transpose_472" version="0"/>
			</rt_info>
			<input>
				<port id="0" precision="FP32">
					<dim>-1</dim>
					<dim>512</dim>
					<dim>2499</dim>
				</port>
				<port id="1" precision="FP32">
					<dim>1</dim>
					<dim>512</dim>
					<dim>1</dim>
				</port>
			</input>
			<output>
				<port id="2" names="onnx::Transpose_472" precision="FP32">
					<dim>-1</dim>
					<dim>512</dim>
					<dim>2499</dim>
				</port>
			</output>
		</layer>
		<layer id="51" name="Constant_1029" type="Const" version="opset1">
			<data element_type="i64" offset="13832" shape="3" size="24"/>
			<rt_info>
				<attribute name="fused_names" value="Constant_1029" version="0"/>
			</rt_info>
			<output>
				<port id="0" precision="I64">
					<dim>3</dim>
				</port>
			</output>
		</layer>
		<layer id="52" name="input.19" type="Transpose" version="opset1">
			<rt_info>
				<attribute name="fused_names" value="input.19" version="0"/>
			</rt_info>
			<input>
				<port id="0" precision="FP32">
					<dim>-1</dim>
					<dim>512</dim>
					<dim>2499</dim>
				</port>
				<port id="1" precision="I64">
					<dim>3</dim>
				</port>
			</input>
			<output>
				<port id="2" names="input.19" precision="FP32">
					<dim>-1</dim>
					<dim>2499</dim>
					<dim>512</dim>
				</port>
			</output>
		</layer>
		<layer id="53" name="Constant_1031" type="Const" version="opset1">
			<data element_type="i64" offset="13856" shape="1" size="8"/>
			<rt_info>
				<attribute name="fused_names" value="Constant_1031" version="0"/>
			</rt_info>
			<output>
				<port id="0" precision="I64">
					<dim>1</dim>
				</port>
			</output>
		</layer>
		<layer id="54" name="onnx::Mul_482" type="MVN" version="opset6">
			<data eps="9.9999997473787516e-06" eps_mode="INSIDE_SQRT" normalize_variance="true"/>
			<rt_info>
				<attribute name="fused_names" value="onnx::Add_478, onnx::Div_481, onnx::Mul_482, onnx::Pow_475, onnx::ReduceMean_477, onnx::Sqrt_480, onnx::Sub_474" version="0"/>
			</rt_info>
			<input>
				<port id="0" precision="FP32">
					<dim>-1</dim>
					<dim>2499</dim>
					<dim>512</dim>
				</port>
				<port id="1" precision="I64">
					<dim>1</dim>
				</port>
			</input>
			<output>
				<port id="2" names="onnx::Mul_482" precision="FP32">
					<dim>-1</dim>
					<dim>2499</dim>
					<dim>512</dim>
				</port>
			</output>
		</layer>
		<layer id="55" name="Constant_130916_compressed" type="Const" version="opset1">
			<data element_type="f16" offset="3165736" shape="1, 1, 512" size="1024"/>
			<output>
				<port id="0" precision="FP16">
					<dim>1</dim>
					<dim>1</dim>
					<dim>512</dim>
				</port>
			</output>
		</layer>
		<layer id="56" name="Constant_130916" type="Convert" version="opset1">
			<data destination_type="f32"/>
			<rt_info>
				<attribute name="decompression" version="0"/>
			</rt_info>
			<input>
				<port id="0" precision="FP16">
					<dim>1</dim>
					<dim>1</dim>
					<dim>512</dim>
				</port>
			</input>
			<output>
				<port id="1" precision="FP32">
					<dim>1</dim>
					<dim>1</dim>
					<dim>512</dim>
				</port>
			</output>
		</layer>
		<layer id="57" name="onnx::Add_483" type="Multiply" version="opset1">
			<data auto_broadcast="numpy"/>
			<rt_info>
				<attribute name="fused_names" value="onnx::Add_483" version="0"/>
			</rt_info>
			<input>
				<port id="0" precision="FP32">
					<dim>-1</dim>
					<dim>2499</dim>
					<dim>512</dim>
				</port>
				<port id="1" precision="FP32">
					<dim>1</dim>
					<dim>1</dim>
					<dim>512</dim>
				</port>
			</input>
			<output>
				<port id="2" names="onnx::Add_483" precision="FP32">
					<dim>-1</dim>
					<dim>2499</dim>
					<dim>512</dim>
				</port>
			</output>
		</layer>
		<layer id="58" name="Constant_130917_compressed" type="Const" version="opset1">
			<data element_type="f16" offset="3166760" shape="1, 1, 512" size="1024"/>
			<output>
				<port id="0" precision="FP16">
					<dim>1</dim>
					<dim>1</dim>
					<dim>512</dim>
				</port>
			</output>
		</layer>
		<layer id="59" name="Constant_130917" type="Convert" version="opset1">
			<data destination_type="f32"/>
			<rt_info>
				<attribute name="decompression" version="0"/>
			</rt_info>
			<input>
				<port id="0" precision="FP16">
					<dim>1</dim>
					<dim>1</dim>
					<dim>512</dim>
				</port>
			</input>
			<output>
				<port id="1" precision="FP32">
					<dim>1</dim>
					<dim>1</dim>
					<dim>512</dim>
				</port>
			</output>
		</layer>
		<layer id="60" name="onnx::Transpose_484" type="Add" version="opset1">
			<data auto_broadcast="numpy"/>
			<rt_info>
				<attribute name="fused_names" value="onnx::Transpose_484" version="0"/>
			</rt_info>
			<input>
				<port id="0" precision="FP32">
					<dim>-1</dim>
					<dim>2499</dim>
					<dim>512</dim>
				</port>
				<port id="1" precision="FP32">
					<dim>1</dim>
					<dim>1</dim>
					<dim>512</dim>
				</port>
			</input>
			<output>
				<port id="2" names="onnx::Transpose_484" precision="FP32">
					<dim>-1</dim>
					<dim>2499</dim>
					<dim>512</dim>
				</port>
			</output>
		</layer>
		<layer id="61" name="Constant_1044" type="Const" version="opset1">
			<data element_type="i64" offset="13832" shape="3" size="24"/>
			<rt_info>
				<attribute name="fused_names" value="Constant_1044" version="0"/>
			</rt_info>
			<output>
				<port id="0" precision="I64">
					<dim>3</dim>
				</port>
			</output>
		</layer>
		<layer id="62" name="onnx::Div_485" type="Transpose" version="opset1">
			<rt_info>
				<attribute name="fused_names" value="onnx::Div_485" version="0"/>
			</rt_info>
			<input>
				<port id="0" precision="FP32">
					<dim>-1</dim>
					<dim>2499</dim>
					<dim>512</dim>
				</port>
				<port id="1" precision="I64">
					<dim>3</dim>
				</port>
			</input>
			<output>
				<port id="2" names="onnx::Div_485" precision="FP32">
					<dim>-1</dim>
					<dim>512</dim>
					<dim>2499</dim>
				</port>
			</output>
		</layer>
		<layer id="63" name="input.23" type="Gelu" version="opset7">
			<data approximation_mode="ERF"/>
			<rt_info>
				<attribute name="fused_names" value="input.23, onnx::Add_488, onnx::Erf_487, onnx::Mul_490, onnx::Mul_491" version="0"/>
			</rt_info>
			<input>
				<port id="0" precision="FP32">
					<dim>-1</dim>
					<dim>512</dim>
					<dim>2499</dim>
				</port>
			</input>
			<output>
				<port id="1" names="input.23" precision="FP32">
					<dim>-1</dim>
					<dim>512</dim>
					<dim>2499</dim>
				</port>
			</output>
		</layer>
		<layer id="64" name="wav2vec2.feature_extractor.conv_layers.3.conv.weight_compressed" type="Const" version="opset1">
			<data element_type="f16" offset="3167784" shape="512, 512, 3" size="1572864"/>
			<output>
				<port id="0" precision="FP16">
					<dim>512</dim>
					<dim>512</dim>
					<dim>3</dim>
				</port>
			</output>
		</layer>
		<layer id="65" name="wav2vec2.feature_extractor.conv_layers.3.conv.weight" type="Convert" version="opset1">
			<data destination_type="f32"/>
			<rt_info>
				<attribute name="decompression" version="0"/>
				<attribute name="fused_names" value="wav2vec2.feature_extractor.conv_layers.3.conv.weight" version="0"/>
			</rt_info>
			<input>
				<port id="0" precision="FP16">
					<dim>512</dim>
					<dim>512</dim>
					<dim>3</dim>
				</port>
			</input>
			<output>
				<port id="1" names="wav2vec2.feature_extractor.conv_layers.3.conv.weight" precision="FP32">
					<dim>512</dim>
					<dim>512</dim>
					<dim>3</dim>
				</port>
			</output>
		</layer>
		<layer id="66" name="Convolution_1054" type="Convolution" version="opset1">
			<data auto_pad="explicit" dilations="1" pads_begin="0" pads_end="0" strides="2"/>
			<rt_info>
				<attribute name="fused_names" value="Convolution_1054" version="0"/>
			</rt_info>
			<input>
				<port id="0" precision="FP32">
					<dim>-1</dim>
					<dim>512</dim>
					<dim>2499</dim>
				</port>
				<port id="1" precision="FP32">
					<dim>512</dim>
					<dim>512</dim>
					<dim>3</dim>
				</port>
			</input>
			<output>
				<port id="2" precision="FP32">
					<dim>-1</dim>
					<dim>512</dim>
					<dim>1249</dim>
				</port>
			</output>
		</layer>
		<layer id="67" name="Reshape_1074_compressed" type="Const" version="opset1">
			<data element_type="f16" offset="4740648" shape="1, 512, 1" size="1024"/>
			<output>
				<port id="0" precision="FP16">
					<dim>1</dim>
					<dim>512</dim>
					<dim>1</dim>
				</port>
			</output>
		</layer>
		<layer id="68" name="Reshape_1074" type="Convert" version="opset1">
			<data destination_type="f32"/>
			<rt_info>
				<attribute name="decompression" version="0"/>
			</rt_info>
			<input>
				<port id="0" precision="FP16">
					<dim>1</dim>
					<dim>512</dim>
					<dim>1</dim>
				</port>
			</input>
			<output>
				<port id="1" precision="FP32">
					<dim>1</dim>
					<dim>512</dim>
					<dim>1</dim>
				</port>
			</output>
		</layer>
		<layer id="69" name="onnx::Transpose_494" type="Add" version="opset1">
			<data auto_broadcast="numpy"/>
			<rt_info>
				<attribute name="fused_names" value="Concat_1073, Reshape_1074, onnx::Transpose_494" version="0"/>
			</rt_info>
			<input>
				<port id="0" precision="FP32">
					<dim>-1</dim>
					<dim>512</dim>
					<dim>1249</dim>
				</port>
				<port id="1" precision="FP32">
					<dim>1</dim>
					<dim>512</dim>
					<dim>1</dim>
				</port>
			</input>
			<output>
				<port id="2" names="onnx::Transpose_494" precision="FP32">
					<dim>-1</dim>
					<dim>512</dim>
					<dim>1249</dim>
				</port>
			</output>
		</layer>
		<layer id="70" name="Constant_1102" type="Const" version="opset1">
			<data element_type="i64" offset="13832" shape="3" size="24"/>
			<rt_info>
				<attribute name="fused_names" value="Constant_1102" version="0"/>
			</rt_info>
			<output>
				<port id="0" precision="I64">
					<dim>3</dim>
				</port>
			</output>
		</layer>
		<layer id="71" name="input.27" type="Transpose" version="opset1">
			<rt_info>
				<attribute name="fused_names" value="input.27" version="0"/>
			</rt_info>
			<input>
				<port id="0" precision="FP32">
					<dim>-1</dim>
					<dim>512</dim>
					<dim>1249</dim>
				</port>
				<port id="1" precision="I64">
					<dim>3</dim>
				</port>
			</input>
			<output>
				<port id="2" names="input.27" precision="FP32">
					<dim>-1</dim>
					<dim>1249</dim>
					<dim>512</dim>
				</port>
			</output>
		</layer>
		<layer id="72" name="Constant_1104" type="Const" version="opset1">
			<data element_type="i64" offset="13856" shape="1" size="8"/>
			<rt_info>
				<attribute name="fused_names" value="Constant_1104" version="0"/>
			</rt_info>
			<output>
				<port id="0" precision="I64">
					<dim>1</dim>
				</port>
			</output>
		</layer>
		<layer id="73" name="onnx::Mul_504" type="MVN" version="opset6">
			<data eps="9.9999997473787516e-06" eps_mode="INSIDE_SQRT" normalize_variance="true"/>
			<rt_info>
				<attribute name="fused_names" value="onnx::Add_500, onnx::Div_503, onnx::Mul_504, onnx::Pow_497, onnx::ReduceMean_499, onnx::Sqrt_502, onnx::Sub_496" version="0"/>
			</rt_info>
			<input>
				<port id="0" precision="FP32">
					<dim>-1</dim>
					<dim>1249</dim>
					<dim>512</dim>
				</port>
				<port id="1" precision="I64">
					<dim>1</dim>
				</port>
			</input>
			<output>
				<port id="2" names="onnx::Mul_504" precision="FP32">
					<dim>-1</dim>
					<dim>1249</dim>
					<dim>512</dim>
				</port>
			</output>
		</layer>
		<layer id="74" name="Constant_130918_compressed" type="Const" version="opset1">
			<data element_type="f16" offset="4741672" shape="1, 1, 512" size="1024"/>
			<output>
				<port id="0" precision="FP16">
					<dim>1</dim>
					<dim>1</dim>
					<dim>512</dim>
				</port>
			</output>
		</layer>
		<layer id="75" name="Constant_130918" type="Convert" version="opset1">
			<data destination_type="f32"/>
			<rt_info>
				<attribute name="decompression" version="0"/>
			</rt_info>
			<input>
				<port id="0" precision="FP16">
					<dim>1</dim>
					<dim>1</dim>
					<dim>512</dim>
				</port>
			</input>
			<output>
				<port id="1" precision="FP32">
					<dim>1</dim>
					<dim>1</dim>
					<dim>512</dim>
				</port>
			</output>
		</layer>
		<layer id="76" name="onnx::Add_505" type="Multiply" version="opset1">
			<data auto_broadcast="numpy"/>
			<rt_info>
				<attribute name="fused_names" value="onnx::Add_505" version="0"/>
			</rt_info>
			<input>
				<port id="0" precision="FP32">
					<dim>-1</dim>
					<dim>1249</dim>
					<dim>512</dim>
				</port>
				<port id="1" precision="FP32">
					<dim>1</dim>
					<dim>1</dim>
					<dim>512</dim>
				</port>
			</input>
			<output>
				<port id="2" names="onnx::Add_505" precision="FP32">
					<dim>-1</dim>
					<dim>1249</dim>
					<dim>512</dim>
				</port>
			</output>
		</layer>
		<layer id="77" name="Constant_130919_compressed" type="Const" version="opset1">
			<data element_type="f16" offset="4742696" shape="1, 1, 512" size="1024"/>
			<output>
				<port id="0" precision="FP16">
					<dim>1</dim>
					<dim>1</dim>
					<dim>512</dim>
				</port>
			</output>
		</layer>
		<layer id="78" name="Constant_130919" type="Convert" version="opset1">
			<data destination_type="f32"/>
			<rt_info>
				<attribute name="decompression" version="0"/>
			</rt_info>
			<input>
				<port id="0" precision="FP16">
					<dim>1</dim>
					<dim>1</dim>
					<dim>512</dim>
				</port>
			</input>
			<output>
				<port id="1" precision="FP32">
					<dim>1</dim>
					<dim>1</dim>
					<dim>512</dim>
				</port>
			</output>
		</layer>
		<layer id="79" name="onnx::Transpose_506" type="Add" version="opset1">
			<data auto_broadcast="numpy"/>
			<rt_info>
				<attribute name="fused_names" value="onnx::Transpose_506" version="0"/>
			</rt_info>
			<input>
				<port id="0" precision="FP32">
					<dim>-1</dim>
					<dim>1249</dim>
					<dim>512</dim>
				</port>
				<port id="1" precision="FP32">
					<dim>1</dim>
					<dim>1</dim>
					<dim>512</dim>
				</port>
			</input>
			<output>
				<port id="2" names="onnx::Transpose_506" precision="FP32">
					<dim>-1</dim>
					<dim>1249</dim>
					<dim>512</dim>
				</port>
			</output>
		</layer>
		<layer id="80" name="Constant_1117" type="Const" version="opset1">
			<data element_type="i64" offset="13832" shape="3" size="24"/>
			<rt_info>
				<attribute name="fused_names" value="Constant_1117" version="0"/>
			</rt_info>
			<output>
				<port id="0" precision="I64">
					<dim>3</dim>
				</port>
			</output>
		</layer>
		<layer id="81" name="onnx::Div_507" type="Transpose" version="opset1">
			<rt_info>
				<attribute name="fused_names" value="onnx::Div_507" version="0"/>
			</rt_info>
			<input>
				<port id="0" precision="FP32">
					<dim>-1</dim>
					<dim>1249</dim>
					<dim>512</dim>
				</port>
				<port id="1" precision="I64">
					<dim>3</dim>
				</port>
			</input>
			<output>
				<port id="2" names="onnx::Div_507" precision="FP32">
					<dim>-1</dim>
					<dim>512</dim>
					<dim>1249</dim>
				</port>
			</output>
		</layer>
		<layer id="82" name="input.31" type="Gelu" version="opset7">
			<data approximation_mode="ERF"/>
			<rt_info>
				<attribute name="fused_names" value="input.31, onnx::Add_510, onnx::Erf_509, onnx::Mul_512, onnx::Mul_513" version="0"/>
			</rt_info>
			<input>
				<port id="0" precision="FP32">
					<dim>-1</dim>
					<dim>512</dim>
					<dim>1249</dim>
				</port>
			</input>
			<output>
				<port id="1" names="input.31" precision="FP32">
					<dim>-1</dim>
					<dim>512</dim>
					<dim>1249</dim>
				</port>
			</output>
		</layer>
		<layer id="83" name="wav2vec2.feature_extractor.conv_layers.4.conv.weight_compressed" type="Const" version="opset1">
			<data element_type="f16" offset="4743720" shape="512, 512, 3" size="1572864"/>
			<output>
				<port id="0" precision="FP16">
					<dim>512</dim>
					<dim>512</dim>
					<dim>3</dim>
				</port>
			</output>
		</layer>
		<layer id="84" name="wav2vec2.feature_extractor.conv_layers.4.conv.weight" type="Convert" version="opset1">
			<data destination_type="f32"/>
			<rt_info>
				<attribute name="decompression" version="0"/>
				<attribute name="fused_names" value="wav2vec2.feature_extractor.conv_layers.4.conv.weight" version="0"/>
			</rt_info>
			<input>
				<port id="0" precision="FP16">
					<dim>512</dim>
					<dim>512</dim>
					<dim>3</dim>
				</port>
			</input>
			<output>
				<port id="1" names="wav2vec2.feature_extractor.conv_layers.4.conv.weight" precision="FP32">
					<dim>512</dim>
					<dim>512</dim>
					<dim>3</dim>
				</port>
			</output>
		</layer>
		<layer id="85" name="Convolution_1127" type="Convolution" version="opset1">
			<data auto_pad="explicit" dilations="1" pads_begin="0" pads_end="0" strides="2"/>
			<rt_info>
				<attribute name="fused_names" value="Convolution_1127" version="0"/>
			</rt_info>
			<input>
				<port id="0" precision="FP32">
					<dim>-1</dim>
					<dim>512</dim>
					<dim>1249</dim>
				</port>
				<port id="1" precision="FP32">
					<dim>512</dim>
					<dim>512</dim>
					<dim>3</dim>
				</port>
			</input>
			<output>
				<port id="2" precision="FP32">
					<dim>-1</dim>
					<dim>512</dim>
					<dim>624</dim>
				</port>
			</output>
		</layer>
		<layer id="86" name="Reshape_1147_compressed" type="Const" version="opset1">
			<data element_type="f16" offset="6316584" shape="1, 512, 1" size="1024"/>
			<output>
				<port id="0" precision="FP16">
					<dim>1</dim>
					<dim>512</dim>
					<dim>1</dim>
				</port>
			</output>
		</layer>
		<layer id="87" name="Reshape_1147" type="Convert" version="opset1">
			<data destination_type="f32"/>
			<rt_info>
				<attribute name="decompression" version="0"/>
			</rt_info>
			<input>
				<port id="0" precision="FP16">
					<dim>1</dim>
					<dim>512</dim>
					<dim>1</dim>
				</port>
			</input>
			<output>
				<port id="1" precision="FP32">
					<dim>1</dim>
					<dim>512</dim>
					<dim>1</dim>
				</port>
			</output>
		</layer>
		<layer id="88" name="onnx::Transpose_516" type="Add" version="opset1">
			<data auto_broadcast="numpy"/>
			<rt_info>
				<attribute name="fused_names" value="Concat_1146, Reshape_1147, onnx::Transpose_516" version="0"/>
			</rt_info>
			<input>
				<port id="0" precision="FP32">
					<dim>-1</dim>
					<dim>512</dim>
					<dim>624</dim>
				</port>
				<port id="1" precision="FP32">
					<dim>1</dim>
					<dim>512</dim>
					<dim>1</dim>
				</port>
			</input>
			<output>
				<port id="2" names="onnx::Transpose_516" precision="FP32">
					<dim>-1</dim>
					<dim>512</dim>
					<dim>624</dim>
				</port>
			</output>
		</layer>
		<layer id="89" name="Constant_1175" type="Const" version="opset1">
			<data element_type="i64" offset="13832" shape="3" size="24"/>
			<rt_info>
				<attribute name="fused_names" value="Constant_1175" version="0"/>
			</rt_info>
			<output>
				<port id="0" precision="I64">
					<dim>3</dim>
				</port>
			</output>
		</layer>
		<layer id="90" name="input.35" type="Transpose" version="opset1">
			<rt_info>
				<attribute name="fused_names" value="input.35" version="0"/>
			</rt_info>
			<input>
				<port id="0" precision="FP32">
					<dim>-1</dim>
					<dim>512</dim>
					<dim>624</dim>
				</port>
				<port id="1" precision="I64">
					<dim>3</dim>
				</port>
			</input>
			<output>
				<port id="2" names="input.35" precision="FP32">
					<dim>-1</dim>
					<dim>624</dim>
					<dim>512</dim>
				</port>
			</output>
		</layer>
		<layer id="91" name="Constant_1177" type="Const" version="opset1">
			<data element_type="i64" offset="13856" shape="1" size="8"/>
			<rt_info>
				<attribute name="fused_names" value="Constant_1177" version="0"/>
			</rt_info>
			<output>
				<port id="0" precision="I64">
					<dim>1</dim>
				</port>
			</output>
		</layer>
		<layer id="92" name="onnx::Mul_526" type="MVN" version="opset6">
			<data eps="9.9999997473787516e-06" eps_mode="INSIDE_SQRT" normalize_variance="true"/>
			<rt_info>
				<attribute name="fused_names" value="onnx::Add_522, onnx::Div_525, onnx::Mul_526, onnx::Pow_519, onnx::ReduceMean_521, onnx::Sqrt_524, onnx::Sub_518" version="0"/>
			</rt_info>
			<input>
				<port id="0" precision="FP32">
					<dim>-1</dim>
					<dim>624</dim>
					<dim>512</dim>
				</port>
				<port id="1" precision="I64">
					<dim>1</dim>
				</port>
			</input>
			<output>
				<port id="2" names="onnx::Mul_526" precision="FP32">
					<dim>-1</dim>
					<dim>624</dim>
					<dim>512</dim>
				</port>
			</output>
		</layer>
		<layer id="93" name="Constant_130920_compressed" type="Const" version="opset1">
			<data element_type="f16" offset="6317608" shape="1, 1, 512" size="1024"/>
			<output>
				<port id="0" precision="FP16">
					<dim>1</dim>
					<dim>1</dim>
					<dim>512</dim>
				</port>
			</output>
		</layer>
		<layer id="94" name="Constant_130920" type="Convert" version="opset1">
			<data destination_type="f32"/>
			<rt_info>
				<attribute name="decompression" version="0"/>
			</rt_info>
			<input>
				<port id="0" precision="FP16">
					<dim>1</dim>
					<dim>1</dim>
					<dim>512</dim>
				</port>
			</input>
			<output>
				<port id="1" precision="FP32">
					<dim>1</dim>
					<dim>1</dim>
					<dim>512</dim>
				</port>
			</output>
		</layer>
		<layer id="95" name="onnx::Add_527" type="Multiply" version="opset1">
			<data auto_broadcast="numpy"/>
			<rt_info>
				<attribute name="fused_names" value="onnx::Add_527" version="0"/>
			</rt_info>
			<input>
				<port id="0" precision="FP32">
					<dim>-1</dim>
					<dim>624</dim>
					<dim>512</dim>
				</port>
				<port id="1" precision="FP32">
					<dim>1</dim>
					<dim>1</dim>
					<dim>512</dim>
				</port>
			</input>
			<output>
				<port id="2" names="onnx::Add_527" precision="FP32">
					<dim>-1</dim>
					<dim>624</dim>
					<dim>512</dim>
				</port>
			</output>
		</layer>
		<layer id="96" name="Constant_130921_compressed" type="Const" version="opset1">
			<data element_type="f16" offset="6318632" shape="1, 1, 512" size="1024"/>
			<output>
				<port id="0" precision="FP16">
					<dim>1</dim>
					<dim>1</dim>
					<dim>512</dim>
				</port>
			</output>
		</layer>
		<layer id="97" name="Constant_130921" type="Convert" version="opset1">
			<data destination_type="f32"/>
			<rt_info>
				<attribute name="decompression" version="0"/>
			</rt_info>
			<input>
				<port id="0" precision="FP16">
					<dim>1</dim>
					<dim>1</dim>
					<dim>512</dim>
				</port>
			</input>
			<output>
				<port id="1" precision="FP32">
					<dim>1</dim>
					<dim>1</dim>
					<dim>512</dim>
				</port>
			</output>
		</layer>
		<layer id="98" name="onnx::Transpose_528" type="Add" version="opset1">
			<data auto_broadcast="numpy"/>
			<rt_info>
				<attribute name="fused_names" value="onnx::Transpose_528" version="0"/>
			</rt_info>
			<input>
				<port id="0" precision="FP32">
					<dim>-1</dim>
					<dim>624</dim>
					<dim>512</dim>
				</port>
				<port id="1" precision="FP32">
					<dim>1</dim>
					<dim>1</dim>
					<dim>512</dim>
				</port>
			</input>
			<output>
				<port id="2" names="onnx::Transpose_528" precision="FP32">
					<dim>-1</dim>
					<dim>624</dim>
					<dim>512</dim>
				</port>
			</output>
		</layer>
		<layer id="99" name="Constant_1190" type="Const" version="opset1">
			<data element_type="i64" offset="13832" shape="3" size="24"/>
			<rt_info>
				<attribute name="fused_names" value="Constant_1190" version="0"/>
			</rt_info>
			<output>
				<port id="0" precision="I64">
					<dim>3</dim>
				</port>
			</output>
		</layer>
		<layer id="100" name="onnx::Div_529" type="Transpose" version="opset1">
			<rt_info>
				<attribute name="fused_names" value="onnx::Div_529" version="0"/>
			</rt_info>
			<input>
				<port id="0" precision="FP32">
					<dim>-1</dim>
					<dim>624</dim>
					<dim>512</dim>
				</port>
				<port id="1" precision="I64">
					<dim>3</dim>
				</port>
			</input>
			<output>
				<port id="2" names="onnx::Div_529" precision="FP32">
					<dim>-1</dim>
					<dim>512</dim>
					<dim>624</dim>
				</port>
			</output>
		</layer>
		<layer id="101" name="input.39" type="Gelu" version="opset7">
			<data approximation_mode="ERF"/>
			<rt_info>
				<attribute name="fused_names" value="input.39, onnx::Add_532, onnx::Erf_531, onnx::Mul_534, onnx::Mul_535" version="0"/>
			</rt_info>
			<input>
				<port id="0" precision="FP32">
					<dim>-1</dim>
					<dim>512</dim>
					<dim>624</dim>
				</port>
			</input>
			<output>
				<port id="1" names="input.39" precision="FP32">
					<dim>-1</dim>
					<dim>512</dim>
					<dim>624</dim>
				</port>
			</output>
		</layer>
		<layer id="102" name="wav2vec2.feature_extractor.conv_layers.5.conv.weight_compressed" type="Const" version="opset1">
			<data element_type="f16" offset="6319656" shape="512, 512, 2" size="1048576"/>
			<output>
				<port id="0" precision="FP16">
					<dim>512</dim>
					<dim>512</dim>
					<dim>2</dim>
				</port>
			</output>
		</layer>
		<layer id="103" name="wav2vec2.feature_extractor.conv_layers.5.conv.weight" type="Convert" version="opset1">
			<data destination_type="f32"/>
			<rt_info>
				<attribute name="decompression" version="0"/>
				<attribute name="fused_names" value="wav2vec2.feature_extractor.conv_layers.5.conv.weight" version="0"/>
			</rt_info>
			<input>
				<port id="0" precision="FP16">
					<dim>512</dim>
					<dim>512</dim>
					<dim>2</dim>
				</port>
			</input>
			<output>
				<port id="1" names="wav2vec2.feature_extractor.conv_layers.5.conv.weight" precision="FP32">
					<dim>512</dim>
					<dim>512</dim>
					<dim>2</dim>
				</port>
			</output>
		</layer>
		<layer id="104" name="Convolution_1200" type="Convolution" version="opset1">
			<data auto_pad="explicit" dilations="1" pads_begin="0" pads_end="0" strides="2"/>
			<rt_info>
				<attribute name="fused_names" value="Convolution_1200" version="0"/>
			</rt_info>
			<input>
				<port id="0" precision="FP32">
					<dim>-1</dim>
					<dim>512</dim>
					<dim>624</dim>
				</port>
				<port id="1" precision="FP32">
					<dim>512</dim>
					<dim>512</dim>
					<dim>2</dim>
				</port>
			</input>
			<output>
				<port id="2" precision="FP32">
					<dim>-1</dim>
					<dim>512</dim>
					<dim>312</dim>
				</port>
			</output>
		</layer>
		<layer id="105" name="Reshape_1220_compressed" type="Const" version="opset1">
			<data element_type="f16" offset="7368232" shape="1, 512, 1" size="1024"/>
			<output>
				<port id="0" precision="FP16">
					<dim>1</dim>
					<dim>512</dim>
					<dim>1</dim>
				</port>
			</output>
		</layer>
		<layer id="106" name="Reshape_1220" type="Convert" version="opset1">
			<data destination_type="f32"/>
			<rt_info>
				<attribute name="decompression" version="0"/>
			</rt_info>
			<input>
				<port id="0" precision="FP16">
					<dim>1</dim>
					<dim>512</dim>
					<dim>1</dim>
				</port>
			</input>
			<output>
				<port id="1" precision="FP32">
					<dim>1</dim>
					<dim>512</dim>
					<dim>1</dim>
				</port>
			</output>
		</layer>
		<layer id="107" name="onnx::Transpose_538" type="Add" version="opset1">
			<data auto_broadcast="numpy"/>
			<rt_info>
				<attribute name="fused_names" value="Concat_1219, Reshape_1220, onnx::Transpose_538" version="0"/>
			</rt_info>
			<input>
				<port id="0" precision="FP32">
					<dim>-1</dim>
					<dim>512</dim>
					<dim>312</dim>
				</port>
				<port id="1" precision="FP32">
					<dim>1</dim>
					<dim>512</dim>
					<dim>1</dim>
				</port>
			</input>
			<output>
				<port id="2" names="onnx::Transpose_538" precision="FP32">
					<dim>-1</dim>
					<dim>512</dim>
					<dim>312</dim>
				</port>
			</output>
		</layer>
		<layer id="108" name="Constant_1248" type="Const" version="opset1">
			<data element_type="i64" offset="13832" shape="3" size="24"/>
			<rt_info>
				<attribute name="fused_names" value="Constant_1248" version="0"/>
			</rt_info>
			<output>
				<port id="0" precision="I64">
					<dim>3</dim>
				</port>
			</output>
		</layer>
		<layer id="109" name="input.43" type="Transpose" version="opset1">
			<rt_info>
				<attribute name="fused_names" value="input.43" version="0"/>
			</rt_info>
			<input>
				<port id="0" precision="FP32">
					<dim>-1</dim>
					<dim>512</dim>
					<dim>312</dim>
				</port>
				<port id="1" precision="I64">
					<dim>3</dim>
				</port>
			</input>
			<output>
				<port id="2" names="input.43" precision="FP32">
					<dim>-1</dim>
					<dim>312</dim>
					<dim>512</dim>
				</port>
			</output>
		</layer>
		<layer id="110" name="Constant_1250" type="Const" version="opset1">
			<data element_type="i64" offset="13856" shape="1" size="8"/>
			<rt_info>
				<attribute name="fused_names" value="Constant_1250" version="0"/>
			</rt_info>
			<output>
				<port id="0" precision="I64">
					<dim>1</dim>
				</port>
			</output>
		</layer>
		<layer id="111" name="onnx::Mul_548" type="MVN" version="opset6">
			<data eps="9.9999997473787516e-06" eps_mode="INSIDE_SQRT" normalize_variance="true"/>
			<rt_info>
				<attribute name="fused_names" value="onnx::Add_544, onnx::Div_547, onnx::Mul_548, onnx::Pow_541, onnx::ReduceMean_543, onnx::Sqrt_546, onnx::Sub_540" version="0"/>
			</rt_info>
			<input>
				<port id="0" precision="FP32">
					<dim>-1</dim>
					<dim>312</dim>
					<dim>512</dim>
				</port>
				<port id="1" precision="I64">
					<dim>1</dim>
				</port>
			</input>
			<output>
				<port id="2" names="onnx::Mul_548" precision="FP32">
					<dim>-1</dim>
					<dim>312</dim>
					<dim>512</dim>
				</port>
			</output>
		</layer>
		<layer id="112" name="Constant_130922_compressed" type="Const" version="opset1">
			<data element_type="f16" offset="7369256" shape="1, 1, 512" size="1024"/>
			<output>
				<port id="0" precision="FP16">
					<dim>1</dim>
					<dim>1</dim>
					<dim>512</dim>
				</port>
			</output>
		</layer>
		<layer id="113" name="Constant_130922" type="Convert" version="opset1">
			<data destination_type="f32"/>
			<rt_info>
				<attribute name="decompression" version="0"/>
			</rt_info>
			<input>
				<port id="0" precision="FP16">
					<dim>1</dim>
					<dim>1</dim>
					<dim>512</dim>
				</port>
			</input>
			<output>
				<port id="1" precision="FP32">
					<dim>1</dim>
					<dim>1</dim>
					<dim>512</dim>
				</port>
			</output>
		</layer>
		<layer id="114" name="onnx::Add_549" type="Multiply" version="opset1">
			<data auto_broadcast="numpy"/>
			<rt_info>
				<attribute name="fused_names" value="onnx::Add_549" version="0"/>
			</rt_info>
			<input>
				<port id="0" precision="FP32">
					<dim>-1</dim>
					<dim>312</dim>
					<dim>512</dim>
				</port>
				<port id="1" precision="FP32">
					<dim>1</dim>
					<dim>1</dim>
					<dim>512</dim>
				</port>
			</input>
			<output>
				<port id="2" names="onnx::Add_549" precision="FP32">
					<dim>-1</dim>
					<dim>312</dim>
					<dim>512</dim>
				</port>
			</output>
		</layer>
		<layer id="115" name="Constant_130923_compressed" type="Const" version="opset1">
			<data element_type="f16" offset="7370280" shape="1, 1, 512" size="1024"/>
			<output>
				<port id="0" precision="FP16">
					<dim>1</dim>
					<dim>1</dim>
					<dim>512</dim>
				</port>
			</output>
		</layer>
		<layer id="116" name="Constant_130923" type="Convert" version="opset1">
			<data destination_type="f32"/>
			<rt_info>
				<attribute name="decompression" version="0"/>
			</rt_info>
			<input>
				<port id="0" precision="FP16">
					<dim>1</dim>
					<dim>1</dim>
					<dim>512</dim>
				</port>
			</input>
			<output>
				<port id="1" precision="FP32">
					<dim>1</dim>
					<dim>1</dim>
					<dim>512</dim>
				</port>
			</output>
		</layer>
		<layer id="117" name="onnx::Transpose_550" type="Add" version="opset1">
			<data auto_broadcast="numpy"/>
			<rt_info>
				<attribute name="fused_names" value="onnx::Transpose_550" version="0"/>
			</rt_info>
			<input>
				<port id="0" precision="FP32">
					<dim>-1</dim>
					<dim>312</dim>
					<dim>512</dim>
				</port>
				<port id="1" precision="FP32">
					<dim>1</dim>
					<dim>1</dim>
					<dim>512</dim>
				</port>
			</input>
			<output>
				<port id="2" names="onnx::Transpose_550" precision="FP32">
					<dim>-1</dim>
					<dim>312</dim>
					<dim>512</dim>
				</port>
			</output>
		</layer>
		<layer id="118" name="Constant_1263" type="Const" version="opset1">
			<data element_type="i64" offset="13832" shape="3" size="24"/>
			<rt_info>
				<attribute name="fused_names" value="Constant_1263" version="0"/>
			</rt_info>
			<output>
				<port id="0" precision="I64">
					<dim>3</dim>
				</port>
			</output>
		</layer>
		<layer id="119" name="onnx::Div_551" type="Transpose" version="opset1">
			<rt_info>
				<attribute name="fused_names" value="onnx::Div_551" version="0"/>
			</rt_info>
			<input>
				<port id="0" precision="FP32">
					<dim>-1</dim>
					<dim>312</dim>
					<dim>512</dim>
				</port>
				<port id="1" precision="I64">
					<dim>3</dim>
				</port>
			</input>
			<output>
				<port id="2" names="onnx::Div_551" precision="FP32">
					<dim>-1</dim>
					<dim>512</dim>
					<dim>312</dim>
				</port>
			</output>
		</layer>
		<layer id="120" name="input.47" type="Gelu" version="opset7">
			<data approximation_mode="ERF"/>
			<rt_info>
				<attribute name="fused_names" value="input.47, onnx::Add_554, onnx::Erf_553, onnx::Mul_556, onnx::Mul_557" version="0"/>
			</rt_info>
			<input>
				<port id="0" precision="FP32">
					<dim>-1</dim>
					<dim>512</dim>
					<dim>312</dim>
				</port>
			</input>
			<output>
				<port id="1" names="input.47" precision="FP32">
					<dim>-1</dim>
					<dim>512</dim>
					<dim>312</dim>
				</port>
			</output>
		</layer>
		<layer id="121" name="wav2vec2.feature_extractor.conv_layers.6.conv.weight_compressed" type="Const" version="opset1">
			<data element_type="f16" offset="7371304" shape="512, 512, 2" size="1048576"/>
			<output>
				<port id="0" precision="FP16">
					<dim>512</dim>
					<dim>512</dim>
					<dim>2</dim>
				</port>
			</output>
		</layer>
		<layer id="122" name="wav2vec2.feature_extractor.conv_layers.6.conv.weight" type="Convert" version="opset1">
			<data destination_type="f32"/>
			<rt_info>
				<attribute name="decompression" version="0"/>
				<attribute name="fused_names" value="wav2vec2.feature_extractor.conv_layers.6.conv.weight" version="0"/>
			</rt_info>
			<input>
				<port id="0" precision="FP16">
					<dim>512</dim>
					<dim>512</dim>
					<dim>2</dim>
				</port>
			</input>
			<output>
				<port id="1" names="wav2vec2.feature_extractor.conv_layers.6.conv.weight" precision="FP32">
					<dim>512</dim>
					<dim>512</dim>
					<dim>2</dim>
				</port>
			</output>
		</layer>
		<layer id="123" name="Convolution_1273" type="Convolution" version="opset1">
			<data auto_pad="explicit" dilations="1" pads_begin="0" pads_end="0" strides="2"/>
			<rt_info>
				<attribute name="fused_names" value="Convolution_1273" version="0"/>
			</rt_info>
			<input>
				<port id="0" precision="FP32">
					<dim>-1</dim>
					<dim>512</dim>
					<dim>312</dim>
				</port>
				<port id="1" precision="FP32">
					<dim>512</dim>
					<dim>512</dim>
					<dim>2</dim>
				</port>
			</input>
			<output>
				<port id="2" precision="FP32">
					<dim>-1</dim>
					<dim>512</dim>
					<dim>156</dim>
				</port>
			</output>
		</layer>
		<layer id="124" name="Reshape_1293_compressed" type="Const" version="opset1">
			<data element_type="f16" offset="8419880" shape="1, 512, 1" size="1024"/>
			<output>
				<port id="0" precision="FP16">
					<dim>1</dim>
					<dim>512</dim>
					<dim>1</dim>
				</port>
			</output>
		</layer>
		<layer id="125" name="Reshape_1293" type="Convert" version="opset1">
			<data destination_type="f32"/>
			<rt_info>
				<attribute name="decompression" version="0"/>
			</rt_info>
			<input>
				<port id="0" precision="FP16">
					<dim>1</dim>
					<dim>512</dim>
					<dim>1</dim>
				</port>
			</input>
			<output>
				<port id="1" precision="FP32">
					<dim>1</dim>
					<dim>512</dim>
					<dim>1</dim>
				</port>
			</output>
		</layer>
		<layer id="126" name="onnx::Transpose_560" type="Add" version="opset1">
			<data auto_broadcast="numpy"/>
			<rt_info>
				<attribute name="fused_names" value="Concat_1292, Reshape_1293, onnx::Transpose_560" version="0"/>
			</rt_info>
			<input>
				<port id="0" precision="FP32">
					<dim>-1</dim>
					<dim>512</dim>
					<dim>156</dim>
				</port>
				<port id="1" precision="FP32">
					<dim>1</dim>
					<dim>512</dim>
					<dim>1</dim>
				</port>
			</input>
			<output>
				<port id="2" names="onnx::Transpose_560" precision="FP32">
					<dim>-1</dim>
					<dim>512</dim>
					<dim>156</dim>
				</port>
			</output>
		</layer>
		<layer id="127" name="Constant_1321" type="Const" version="opset1">
			<data element_type="i64" offset="13832" shape="3" size="24"/>
			<rt_info>
				<attribute name="fused_names" value="Constant_1321" version="0"/>
			</rt_info>
			<output>
				<port id="0" precision="I64">
					<dim>3</dim>
				</port>
			</output>
		</layer>
		<layer id="128" name="input.51" type="Transpose" version="opset1">
			<rt_info>
				<attribute name="fused_names" value="input.51" version="0"/>
			</rt_info>
			<input>
				<port id="0" precision="FP32">
					<dim>-1</dim>
					<dim>512</dim>
					<dim>156</dim>
				</port>
				<port id="1" precision="I64">
					<dim>3</dim>
				</port>
			</input>
			<output>
				<port id="2" names="input.51" precision="FP32">
					<dim>-1</dim>
					<dim>156</dim>
					<dim>512</dim>
				</port>
			</output>
		</layer>
		<layer id="129" name="Constant_1323" type="Const" version="opset1">
			<data element_type="i64" offset="13856" shape="1" size="8"/>
			<rt_info>
				<attribute name="fused_names" value="Constant_1323" version="0"/>
			</rt_info>
			<output>
				<port id="0" precision="I64">
					<dim>1</dim>
				</port>
			</output>
		</layer>
		<layer id="130" name="onnx::Mul_570" type="MVN" version="opset6">
			<data eps="9.9999997473787516e-06" eps_mode="INSIDE_SQRT" normalize_variance="true"/>
			<rt_info>
				<attribute name="fused_names" value="onnx::Add_566, onnx::Div_569, onnx::Mul_570, onnx::Pow_563, onnx::ReduceMean_565, onnx::Sqrt_568, onnx::Sub_562" version="0"/>
			</rt_info>
			<input>
				<port id="0" precision="FP32">
					<dim>-1</dim>
					<dim>156</dim>
					<dim>512</dim>
				</port>
				<port id="1" precision="I64">
					<dim>1</dim>
				</port>
			</input>
			<output>
				<port id="2" names="onnx::Mul_570" precision="FP32">
					<dim>-1</dim>
					<dim>156</dim>
					<dim>512</dim>
				</port>
			</output>
		</layer>
		<layer id="131" name="Constant_130924_compressed" type="Const" version="opset1">
			<data element_type="f16" offset="8420904" shape="1, 1, 512" size="1024"/>
			<output>
				<port id="0" precision="FP16">
					<dim>1</dim>
					<dim>1</dim>
					<dim>512</dim>
				</port>
			</output>
		</layer>
		<layer id="132" name="Constant_130924" type="Convert" version="opset1">
			<data destination_type="f32"/>
			<rt_info>
				<attribute name="decompression" version="0"/>
			</rt_info>
			<input>
				<port id="0" precision="FP16">
					<dim>1</dim>
					<dim>1</dim>
					<dim>512</dim>
				</port>
			</input>
			<output>
				<port id="1" precision="FP32">
					<dim>1</dim>
					<dim>1</dim>
					<dim>512</dim>
				</port>
			</output>
		</layer>
		<layer id="133" name="onnx::Add_571" type="Multiply" version="opset1">
			<data auto_broadcast="numpy"/>
			<rt_info>
				<attribute name="fused_names" value="onnx::Add_571" version="0"/>
			</rt_info>
			<input>
				<port id="0" precision="FP32">
					<dim>-1</dim>
					<dim>156</dim>
					<dim>512</dim>
				</port>
				<port id="1" precision="FP32">
					<dim>1</dim>
					<dim>1</dim>
					<dim>512</dim>
				</port>
			</input>
			<output>
				<port id="2" names="onnx::Add_571" precision="FP32">
					<dim>-1</dim>
					<dim>156</dim>
					<dim>512</dim>
				</port>
			</output>
		</layer>
		<layer id="134" name="Constant_130925_compressed" type="Const" version="opset1">
			<data element_type="f16" offset="8421928" shape="1, 1, 512" size="1024"/>
			<output>
				<port id="0" precision="FP16">
					<dim>1</dim>
					<dim>1</dim>
					<dim>512</dim>
				</port>
			</output>
		</layer>
		<layer id="135" name="Constant_130925" type="Convert" version="opset1">
			<data destination_type="f32"/>
			<rt_info>
				<attribute name="decompression" version="0"/>
			</rt_info>
			<input>
				<port id="0" precision="FP16">
					<dim>1</dim>
					<dim>1</dim>
					<dim>512</dim>
				</port>
			</input>
			<output>
				<port id="1" precision="FP32">
					<dim>1</dim>
					<dim>1</dim>
					<dim>512</dim>
				</port>
			</output>
		</layer>
		<layer id="136" name="onnx::Transpose_572" type="Add" version="opset1">
			<data auto_broadcast="numpy"/>
			<rt_info>
				<attribute name="fused_names" value="onnx::Transpose_572" version="0"/>
			</rt_info>
			<input>
				<port id="0" precision="FP32">
					<dim>-1</dim>
					<dim>156</dim>
					<dim>512</dim>
				</port>
				<port id="1" precision="FP32">
					<dim>1</dim>
					<dim>1</dim>
					<dim>512</dim>
				</port>
			</input>
			<output>
				<port id="2" names="onnx::Transpose_572" precision="FP32">
					<dim>-1</dim>
					<dim>156</dim>
					<dim>512</dim>
				</port>
			</output>
		</layer>
		<layer id="137" name="Constant_1336" type="Const" version="opset1">
			<data element_type="i64" offset="13832" shape="3" size="24"/>
			<rt_info>
				<attribute name="fused_names" value="Constant_1336" version="0"/>
			</rt_info>
			<output>
				<port id="0" precision="I64">
					<dim>3</dim>
				</port>
			</output>
		</layer>
		<layer id="138" name="onnx::Div_573" type="Transpose" version="opset1">
			<rt_info>
				<attribute name="fused_names" value="onnx::Div_573" version="0"/>
			</rt_info>
			<input>
				<port id="0" precision="FP32">
					<dim>-1</dim>
					<dim>156</dim>
					<dim>512</dim>
				</port>
				<port id="1" precision="I64">
					<dim>3</dim>
				</port>
			</input>
			<output>
				<port id="2" names="onnx::Div_573" precision="FP32">
					<dim>-1</dim>
					<dim>512</dim>
					<dim>156</dim>
				</port>
			</output>
		</layer>
		<layer id="139" name="onnx::Transpose_581" type="Gelu" version="opset7">
			<data approximation_mode="ERF"/>
			<rt_info>
				<attribute name="fused_names" value="onnx::Add_576, onnx::Erf_575, onnx::Mul_578, onnx::Mul_579, onnx::Transpose_581" version="0"/>
			</rt_info>
			<input>
				<port id="0" precision="FP32">
					<dim>-1</dim>
					<dim>512</dim>
					<dim>156</dim>
				</port>
			</input>
			<output>
				<port id="1" names="onnx::Transpose_581" precision="FP32">
					<dim>-1</dim>
					<dim>512</dim>
					<dim>156</dim>
				</port>
			</output>
		</layer>
		<layer id="140" name="Constant_1346" type="Const" version="opset1">
			<data element_type="i64" offset="13832" shape="3" size="24"/>
			<rt_info>
				<attribute name="fused_names" value="Constant_1346" version="0"/>
			</rt_info>
			<output>
				<port id="0" precision="I64">
					<dim>3</dim>
				</port>
			</output>
		</layer>
		<layer id="141" name="input.55" type="Transpose" version="opset1">
			<rt_info>
				<attribute name="fused_names" value="input.55" version="0"/>
			</rt_info>
			<input>
				<port id="0" precision="FP32">
					<dim>-1</dim>
					<dim>512</dim>
					<dim>156</dim>
				</port>
				<port id="1" precision="I64">
					<dim>3</dim>
				</port>
			</input>
			<output>
				<port id="2" names="input.55" precision="FP32">
					<dim>-1</dim>
					<dim>156</dim>
					<dim>512</dim>
				</port>
			</output>
		</layer>
		<layer id="142" name="Constant_1348" type="Const" version="opset1">
			<data element_type="i64" offset="13856" shape="1" size="8"/>
			<rt_info>
				<attribute name="fused_names" value="Constant_1348" version="0"/>
			</rt_info>
			<output>
				<port id="0" precision="I64">
					<dim>1</dim>
				</port>
			</output>
		</layer>
		<layer id="143" name="onnx::Mul_591" type="MVN" version="opset6">
			<data eps="9.9999997473787516e-06" eps_mode="INSIDE_SQRT" normalize_variance="true"/>
			<rt_info>
				<attribute name="fused_names" value="onnx::Add_587, onnx::Div_590, onnx::Mul_591, onnx::Pow_584, onnx::ReduceMean_586, onnx::Sqrt_589, onnx::Sub_583" version="0"/>
			</rt_info>
			<input>
				<port id="0" precision="FP32">
					<dim>-1</dim>
					<dim>156</dim>
					<dim>512</dim>
				</port>
				<port id="1" precision="I64">
					<dim>1</dim>
				</port>
			</input>
			<output>
				<port id="2" names="onnx::Mul_591" precision="FP32">
					<dim>-1</dim>
					<dim>156</dim>
					<dim>512</dim>
				</port>
			</output>
		</layer>
		<layer id="144" name="Constant_130926_compressed" type="Const" version="opset1">
			<data element_type="f16" offset="8422952" shape="1, 1, 512" size="1024"/>
			<output>
				<port id="0" precision="FP16">
					<dim>1</dim>
					<dim>1</dim>
					<dim>512</dim>
				</port>
			</output>
		</layer>
		<layer id="145" name="Constant_130926" type="Convert" version="opset1">
			<data destination_type="f32"/>
			<rt_info>
				<attribute name="decompression" version="0"/>
			</rt_info>
			<input>
				<port id="0" precision="FP16">
					<dim>1</dim>
					<dim>1</dim>
					<dim>512</dim>
				</port>
			</input>
			<output>
				<port id="1" precision="FP32">
					<dim>1</dim>
					<dim>1</dim>
					<dim>512</dim>
				</port>
			</output>
		</layer>
		<layer id="146" name="onnx::Add_592" type="Multiply" version="opset1">
			<data auto_broadcast="numpy"/>
			<rt_info>
				<attribute name="fused_names" value="onnx::Add_592" version="0"/>
			</rt_info>
			<input>
				<port id="0" precision="FP32">
					<dim>-1</dim>
					<dim>156</dim>
					<dim>512</dim>
				</port>
				<port id="1" precision="FP32">
					<dim>1</dim>
					<dim>1</dim>
					<dim>512</dim>
				</port>
			</input>
			<output>
				<port id="2" names="onnx::Add_592" precision="FP32">
					<dim>-1</dim>
					<dim>156</dim>
					<dim>512</dim>
				</port>
			</output>
		</layer>
		<layer id="147" name="Constant_130927_compressed" type="Const" version="opset1">
			<data element_type="f16" offset="8423976" shape="1, 1, 512" size="1024"/>
			<output>
				<port id="0" precision="FP16">
					<dim>1</dim>
					<dim>1</dim>
					<dim>512</dim>
				</port>
			</output>
		</layer>
		<layer id="148" name="Constant_130927" type="Convert" version="opset1">
			<data destination_type="f32"/>
			<rt_info>
				<attribute name="decompression" version="0"/>
			</rt_info>
			<input>
				<port id="0" precision="FP16">
					<dim>1</dim>
					<dim>1</dim>
					<dim>512</dim>
				</port>
			</input>
			<output>
				<port id="1" precision="FP32">
					<dim>1</dim>
					<dim>1</dim>
					<dim>512</dim>
				</port>
			</output>
		</layer>
		<layer id="149" name="onnx::MatMul_593" type="Add" version="opset1">
			<data auto_broadcast="numpy"/>
			<rt_info>
				<attribute name="fused_names" value="onnx::MatMul_593" version="0"/>
			</rt_info>
			<input>
				<port id="0" precision="FP32">
					<dim>-1</dim>
					<dim>156</dim>
					<dim>512</dim>
				</port>
				<port id="1" precision="FP32">
					<dim>1</dim>
					<dim>1</dim>
					<dim>512</dim>
				</port>
			</input>
			<output>
				<port id="2" names="onnx::MatMul_593" precision="FP32">
					<dim>-1</dim>
					<dim>156</dim>
					<dim>512</dim>
				</port>
			</output>
		</layer>
		<layer id="150" name="Constant_129397_compressed" type="Const" version="opset1">
			<data element_type="f16" offset="8425000" shape="1024, 512" size="1048576"/>
			<output>
				<port id="0" precision="FP16">
					<dim>1024</dim>
					<dim>512</dim>
				</port>
			</output>
		</layer>
		<layer id="151" name="Constant_129397" type="Convert" version="opset1">
			<data destination_type="f32"/>
			<rt_info>
				<attribute name="decompression" version="0"/>
				<attribute name="fused_names" value="onnx::Add_595, onnx::MatMul_3729" version="0"/>
			</rt_info>
			<input>
				<port id="0" precision="FP16">
					<dim>1024</dim>
					<dim>512</dim>
				</port>
			</input>
			<output>
				<port id="1" precision="FP32">
					<dim>1024</dim>
					<dim>512</dim>
				</port>
			</output>
		</layer>
		<layer id="152" name="onnx::Add_595" type="MatMul" version="opset1">
			<data transpose_a="false" transpose_b="true"/>
			<rt_info>
				<attribute name="fused_names" value="onnx::Add_595, onnx::MatMul_3729" version="0"/>
			</rt_info>
			<input>
				<port id="0" precision="FP32">
					<dim>-1</dim>
					<dim>156</dim>
					<dim>512</dim>
				</port>
				<port id="1" precision="FP32">
					<dim>1024</dim>
					<dim>512</dim>
				</port>
			</input>
			<output>
				<port id="2" names="onnx::Add_595" precision="FP32">
					<dim>-1</dim>
					<dim>156</dim>
					<dim>1024</dim>
				</port>
			</output>
		</layer>
		<layer id="153" name="input.59" type="Add" version="opset1">
			<data auto_broadcast="numpy"/>
			<rt_info>
				<attribute name="fused_names" value="input.59" version="0"/>
			</rt_info>
			<input>
				<port id="0" precision="FP32">
					<dim>1</dim>
					<dim>1</dim>
					<dim>1024</dim>
				</port>
				<port id="1" precision="FP32">
					<dim>-1</dim>
					<dim>156</dim>
					<dim>1024</dim>
				</port>
			</input>
			<output>
				<port id="2" names="input.59" precision="FP32">
					<dim>-1</dim>
					<dim>156</dim>
					<dim>1024</dim>
				</port>
			</output>
		</layer>
		<layer id="154" name="Constant_1363" type="Const" version="opset1">
			<data element_type="i64" offset="13832" shape="3" size="24"/>
			<rt_info>
				<attribute name="fused_names" value="Constant_1363" version="0"/>
			</rt_info>
			<output>
				<port id="0" precision="I64">
					<dim>3</dim>
				</port>
			</output>
		</layer>
		<layer id="155" name="input.63" type="Transpose" version="opset1">
			<rt_info>
				<attribute name="fused_names" value="input.63" version="0"/>
			</rt_info>
			<input>
				<port id="0" precision="FP32">
					<dim>-1</dim>
					<dim>156</dim>
					<dim>1024</dim>
				</port>
				<port id="1" precision="I64">
					<dim>3</dim>
				</port>
			</input>
			<output>
				<port id="2" names="input.63" precision="FP32">
					<dim>-1</dim>
					<dim>1024</dim>
					<dim>156</dim>
				</port>
			</output>
		</layer>
		<layer id="156" name="Reshape_1372_compressed" type="Const" version="opset1">
			<data element_type="f16" offset="9473576" shape="16, 64, 64, 128" size="16777216"/>
			<output>
				<port id="0" precision="FP16">
					<dim>16</dim>
					<dim>64</dim>
					<dim>64</dim>
					<dim>128</dim>
				</port>
			</output>
		</layer>
		<layer id="157" name="Reshape_1372" type="Convert" version="opset1">
			<data destination_type="f32"/>
			<rt_info>
				<attribute name="decompression" version="0"/>
			</rt_info>
			<input>
				<port id="0" precision="FP16">
					<dim>16</dim>
					<dim>64</dim>
					<dim>64</dim>
					<dim>128</dim>
				</port>
			</input>
			<output>
				<port id="1" precision="FP32">
					<dim>16</dim>
					<dim>64</dim>
					<dim>64</dim>
					<dim>128</dim>
				</port>
			</output>
		</layer>
		<layer id="158" name="GroupConvolution_1438" type="GroupConvolution" version="opset1">
			<data auto_pad="explicit" dilations="1" pads_begin="64" pads_end="64" strides="1"/>
			<rt_info>
				<attribute name="fused_names" value="GroupConvolution_1438, Reshape_1372" version="0"/>
			</rt_info>
			<input>
				<port id="0" precision="FP32">
					<dim>-1</dim>
					<dim>1024</dim>
					<dim>156</dim>
				</port>
				<port id="1" precision="FP32">
					<dim>16</dim>
					<dim>64</dim>
					<dim>64</dim>
					<dim>128</dim>
				</port>
			</input>
			<output>
				<port id="2" precision="FP32">
					<dim>-1</dim>
					<dim>1024</dim>
					<dim>157</dim>
				</port>
			</output>
		</layer>
		<layer id="159" name="Reshape_1458_compressed" type="Const" version="opset1">
			<data element_type="f16" offset="26250792" shape="1, 1024, 1" size="2048"/>
			<output>
				<port id="0" precision="FP16">
					<dim>1</dim>
					<dim>1024</dim>
					<dim>1</dim>
				</port>
			</output>
		</layer>
		<layer id="160" name="Reshape_1458" type="Convert" version="opset1">
			<data destination_type="f32"/>
			<rt_info>
				<attribute name="decompression" version="0"/>
			</rt_info>
			<input>
				<port id="0" precision="FP16">
					<dim>1</dim>
					<dim>1024</dim>
					<dim>1</dim>
				</port>
			</input>
			<output>
				<port id="1" precision="FP32">
					<dim>1</dim>
					<dim>1024</dim>
					<dim>1</dim>
				</port>
			</output>
		</layer>
		<layer id="161" name="onnx::Slice_601" type="Add" version="opset1">
			<data auto_broadcast="numpy"/>
			<rt_info>
				<attribute name="fused_names" value="Concat_1457, Reshape_1458, onnx::Slice_601" version="0"/>
			</rt_info>
			<input>
				<port id="0" precision="FP32">
					<dim>-1</dim>
					<dim>1024</dim>
					<dim>157</dim>
				</port>
				<port id="1" precision="FP32">
					<dim>1</dim>
					<dim>1024</dim>
					<dim>1</dim>
				</port>
			</input>
			<output>
				<port id="2" names="onnx::Slice_601" precision="FP32">
					<dim>-1</dim>
					<dim>1024</dim>
					<dim>157</dim>
				</port>
			</output>
		</layer>
		<layer id="162" name="Constant_107577" type="Const" version="opset1">
			<data element_type="i64" offset="26252840" shape="3" size="24"/>
			<rt_info>
				<attribute name="fused_names" value="onnx::Div_606" version="0"/>
			</rt_info>
			<output>
				<port id="0" precision="I64">
					<dim>3</dim>
				</port>
			</output>
		</layer>
		<layer id="163" name="Constant_107580" type="Const" version="opset1">
			<data element_type="i64" offset="26252864" shape="3" size="24"/>
			<rt_info>
				<attribute name="fused_names" value="onnx::Div_606" version="0"/>
			</rt_info>
			<output>
				<port id="0" precision="I64">
					<dim>3</dim>
				</port>
			</output>
		</layer>
		<layer id="164" name="Constant_107583" type="Const" version="opset1">
			<data element_type="i64" offset="26252888" shape="3" size="24"/>
			<rt_info>
				<attribute name="fused_names" value="onnx::Div_606" version="0"/>
			</rt_info>
			<output>
				<port id="0" precision="I64">
					<dim>3</dim>
				</port>
			</output>
		</layer>
		<layer id="165" name="onnx::Div_606" type="StridedSlice" version="opset1">
			<data begin_mask="1, 1, 0" ellipsis_mask="" end_mask="1, 1, 0" new_axis_mask="" shrink_axis_mask=""/>
			<rt_info>
				<attribute name="fused_names" value="onnx::Div_606" version="0"/>
			</rt_info>
			<input>
				<port id="0" precision="FP32">
					<dim>-1</dim>
					<dim>1024</dim>
					<dim>157</dim>
				</port>
				<port id="1" precision="I64">
					<dim>3</dim>
				</port>
				<port id="2" precision="I64">
					<dim>3</dim>
				</port>
				<port id="3" precision="I64">
					<dim>3</dim>
				</port>
			</input>
			<output>
				<port id="4" names="onnx::Div_606" precision="FP32">
					<dim>-1</dim>
					<dim>1024</dim>
					<dim>156</dim>
				</port>
			</output>
		</layer>
		<layer id="166" name="onnx::Transpose_614" type="Gelu" version="opset7">
			<data approximation_mode="ERF"/>
			<rt_info>
				<attribute name="fused_names" value="onnx::Add_609, onnx::Erf_608, onnx::Mul_611, onnx::Mul_612, onnx::Transpose_614" version="0"/>
			</rt_info>
			<input>
				<port id="0" precision="FP32">
					<dim>-1</dim>
					<dim>1024</dim>
					<dim>156</dim>
				</port>
			</input>
			<output>
				<port id="1" names="onnx::Transpose_614" precision="FP32">
					<dim>-1</dim>
					<dim>1024</dim>
					<dim>156</dim>
				</port>
			</output>
		</layer>
		<layer id="167" name="Constant_1499" type="Const" version="opset1">
			<data element_type="i64" offset="13832" shape="3" size="24"/>
			<rt_info>
				<attribute name="fused_names" value="Constant_1499" version="0"/>
			</rt_info>
			<output>
				<port id="0" precision="I64">
					<dim>3</dim>
				</port>
			</output>
		</layer>
		<layer id="168" name="onnx::Add_615" type="Transpose" version="opset1">
			<rt_info>
				<attribute name="fused_names" value="onnx::Add_615" version="0"/>
			</rt_info>
			<input>
				<port id="0" precision="FP32">
					<dim>-1</dim>
					<dim>1024</dim>
					<dim>156</dim>
				</port>
				<port id="1" precision="I64">
					<dim>3</dim>
				</port>
			</input>
			<output>
				<port id="2" names="onnx::Add_615" precision="FP32">
					<dim>-1</dim>
					<dim>156</dim>
					<dim>1024</dim>
				</port>
			</output>
		</layer>
		<layer id="169" name="input.67" type="Add" version="opset1">
			<data auto_broadcast="numpy"/>
			<rt_info>
				<attribute name="fused_names" value="input.67" version="0"/>
			</rt_info>
			<input>
				<port id="0" precision="FP32">
					<dim>-1</dim>
					<dim>156</dim>
					<dim>1024</dim>
				</port>
				<port id="1" precision="FP32">
					<dim>-1</dim>
					<dim>156</dim>
					<dim>1024</dim>
				</port>
			</input>
			<output>
				<port id="2" names="input.67" precision="FP32">
					<dim>-1</dim>
					<dim>156</dim>
					<dim>1024</dim>
				</port>
			</output>
		</layer>
		<layer id="170" name="Constant_130934_compressed" type="Const" version="opset1">
			<data element_type="f16" offset="26252912" shape="1, 1, 1024" size="2048"/>
			<output>
				<port id="0" precision="FP16">
					<dim>1</dim>
					<dim>1</dim>
					<dim>1024</dim>
				</port>
			</output>
		</layer>
		<layer id="171" name="Constant_130934" type="Convert" version="opset1">
			<data destination_type="f32"/>
			<rt_info>
				<attribute name="decompression" version="0"/>
			</rt_info>
			<input>
				<port id="0" precision="FP16">
					<dim>1</dim>
					<dim>1</dim>
					<dim>1024</dim>
				</port>
			</input>
			<output>
				<port id="1" precision="FP32">
					<dim>1</dim>
					<dim>1</dim>
					<dim>1024</dim>
				</port>
			</output>
		</layer>
		<layer id="172" name="Constant_1502" type="Const" version="opset1">
			<data element_type="i64" offset="13856" shape="1" size="8"/>
			<rt_info>
				<attribute name="fused_names" value="Constant_1502" version="0"/>
			</rt_info>
			<output>
				<port id="0" precision="I64">
					<dim>1</dim>
				</port>
			</output>
		</layer>
		<layer id="173" name="onnx::Mul_625" type="MVN" version="opset6">
			<data eps="9.9999997473787516e-06" eps_mode="INSIDE_SQRT" normalize_variance="true"/>
			<rt_info>
				<attribute name="fused_names" value="onnx::Add_621, onnx::Div_624, onnx::Mul_625, onnx::Pow_618, onnx::ReduceMean_620, onnx::Sqrt_623, onnx::Sub_617" version="0"/>
			</rt_info>
			<input>
				<port id="0" precision="FP32">
					<dim>-1</dim>
					<dim>156</dim>
					<dim>1024</dim>
				</port>
				<port id="1" precision="I64">
					<dim>1</dim>
				</port>
			</input>
			<output>
				<port id="2" names="onnx::Mul_625" precision="FP32">
					<dim>-1</dim>
					<dim>156</dim>
					<dim>1024</dim>
				</port>
			</output>
		</layer>
		<layer id="174" name="Constant_130929_compressed" type="Const" version="opset1">
			<data element_type="f16" offset="26254960" shape="1, 1, 1024" size="2048"/>
			<output>
				<port id="0" precision="FP16">
					<dim>1</dim>
					<dim>1</dim>
					<dim>1024</dim>
				</port>
			</output>
		</layer>
		<layer id="175" name="Constant_130929" type="Convert" version="opset1">
			<data destination_type="f32"/>
			<rt_info>
				<attribute name="decompression" version="0"/>
			</rt_info>
			<input>
				<port id="0" precision="FP16">
					<dim>1</dim>
					<dim>1</dim>
					<dim>1024</dim>
				</port>
			</input>
			<output>
				<port id="1" precision="FP32">
					<dim>1</dim>
					<dim>1</dim>
					<dim>1024</dim>
				</port>
			</output>
		</layer>
		<layer id="176" name="onnx::Add_626" type="Multiply" version="opset1">
			<data auto_broadcast="numpy"/>
			<rt_info>
				<attribute name="fused_names" value="onnx::Add_626" version="0"/>
			</rt_info>
			<input>
				<port id="0" precision="FP32">
					<dim>-1</dim>
					<dim>156</dim>
					<dim>1024</dim>
				</port>
				<port id="1" precision="FP32">
					<dim>1</dim>
					<dim>1</dim>
					<dim>1024</dim>
				</port>
			</input>
			<output>
				<port id="2" names="onnx::Add_626" precision="FP32">
					<dim>-1</dim>
					<dim>156</dim>
					<dim>1024</dim>
				</port>
			</output>
		</layer>
		<layer id="177" name="Constant_130930_compressed" type="Const" version="opset1">
			<data element_type="f16" offset="26257008" shape="1, 1, 1024" size="2048"/>
			<output>
				<port id="0" precision="FP16">
					<dim>1</dim>
					<dim>1</dim>
					<dim>1024</dim>
				</port>
			</output>
		</layer>
		<layer id="178" name="Constant_130930" type="Convert" version="opset1">
			<data destination_type="f32"/>
			<rt_info>
				<attribute name="decompression" version="0"/>
			</rt_info>
			<input>
				<port id="0" precision="FP16">
					<dim>1</dim>
					<dim>1</dim>
					<dim>1024</dim>
				</port>
			</input>
			<output>
				<port id="1" precision="FP32">
					<dim>1</dim>
					<dim>1</dim>
					<dim>1024</dim>
				</port>
			</output>
		</layer>
		<layer id="179" name="onnx::Shape_627" type="Add" version="opset1">
			<data auto_broadcast="numpy"/>
			<rt_info>
				<attribute name="fused_names" value="onnx::Shape_627" version="0"/>
			</rt_info>
			<input>
				<port id="0" precision="FP32">
					<dim>-1</dim>
					<dim>156</dim>
					<dim>1024</dim>
				</port>
				<port id="1" precision="FP32">
					<dim>1</dim>
					<dim>1</dim>
					<dim>1024</dim>
				</port>
			</input>
			<output>
				<port id="2" names="onnx::Shape_627" precision="FP32">
					<dim>-1</dim>
					<dim>156</dim>
					<dim>1024</dim>
				</port>
			</output>
		</layer>
		<layer id="180" name="Constant_130588_compressed" type="Const" version="opset1">
			<data element_type="f16" offset="26259056" shape="1024, 1024" size="2097152"/>
			<output>
				<port id="0" precision="FP16">
					<dim>1024</dim>
					<dim>1024</dim>
				</port>
			</output>
		</layer>
		<layer id="181" name="Constant_130588" type="Convert" version="opset1">
			<data destination_type="f32"/>
			<rt_info>
				<attribute name="decompression" version="0"/>
				<attribute name="fused_names" value="onnx::Add_635, onnx::MatMul_3733, onnx::Mul_636, onnx::Mul_637, query_states" version="0"/>
			</rt_info>
			<input>
				<port id="0" precision="FP16">
					<dim>1024</dim>
					<dim>1024</dim>
				</port>
			</input>
			<output>
				<port id="1" precision="FP32">
					<dim>1024</dim>
					<dim>1024</dim>
				</port>
			</output>
		</layer>
		<layer id="182" name="Multiply_130488" type="MatMul" version="opset1">
			<data transpose_a="false" transpose_b="true"/>
			<rt_info>
				<attribute name="fused_names" value="onnx::Add_635, onnx::MatMul_3733, onnx::Mul_636, onnx::Mul_637, query_states" version="0"/>
			</rt_info>
			<input>
				<port id="0" precision="FP32">
					<dim>-1</dim>
					<dim>156</dim>
					<dim>1024</dim>
				</port>
				<port id="1" precision="FP32">
					<dim>1024</dim>
					<dim>1024</dim>
				</port>
			</input>
			<output>
				<port id="2" precision="FP32">
					<dim>-1</dim>
					<dim>156</dim>
					<dim>1024</dim>
				</port>
			</output>
		</layer>
		<layer id="183" name="Constant_130931_compressed" type="Const" version="opset1">
			<data element_type="f16" offset="28356208" shape="1, 1, 1024" size="2048"/>
			<output>
				<port id="0" precision="FP16">
					<dim>1</dim>
					<dim>1</dim>
					<dim>1024</dim>
				</port>
			</output>
		</layer>
		<layer id="184" name="Constant_130931" type="Convert" version="opset1">
			<data destination_type="f32"/>
			<rt_info>
				<attribute name="decompression" version="0"/>
			</rt_info>
			<input>
				<port id="0" precision="FP16">
					<dim>1</dim>
					<dim>1</dim>
					<dim>1024</dim>
				</port>
			</input>
			<output>
				<port id="1" precision="FP32">
					<dim>1</dim>
					<dim>1</dim>
					<dim>1024</dim>
				</port>
			</output>
		</layer>
		<layer id="185" name="query_states" type="Add" version="opset1">
			<data auto_broadcast="numpy"/>
			<rt_info>
				<attribute name="fused_names" value="onnx::Mul_636, query_states" version="0"/>
			</rt_info>
			<input>
				<port id="0" precision="FP32">
					<dim>-1</dim>
					<dim>156</dim>
					<dim>1024</dim>
				</port>
				<port id="1" precision="FP32">
					<dim>1</dim>
					<dim>1</dim>
					<dim>1024</dim>
				</port>
			</input>
			<output>
				<port id="2" names="query_states" precision="FP32">
					<dim>-1</dim>
					<dim>156</dim>
					<dim>1024</dim>
				</port>
			</output>
		</layer>
		<layer id="186" name="onnx::Gather_628" type="ShapeOf" version="opset3">
			<data output_type="i64"/>
			<rt_info>
				<attribute name="fused_names" value="onnx::Gather_628, onnx::Gather_631" version="0"/>
			</rt_info>
			<input>
				<port id="0" precision="FP32">
					<dim>-1</dim>
					<dim>156</dim>
					<dim>1024</dim>
				</port>
			</input>
			<output>
				<port id="1" names="onnx::Gather_628,onnx::Gather_631" precision="I64">
					<dim>3</dim>
				</port>
			</output>
		</layer>
		<layer id="187" name="Constant_85685" type="Const" version="opset1">
			<data element_type="i64" offset="28358256" shape="2" size="16"/>
			<rt_info>
				<attribute name="fused_names" value="onnx::Concat_3742, onnx::Concat_3743, onnx::Reshape_673" version="0"/>
			</rt_info>
			<output>
				<port id="0" precision="I64">
					<dim>2</dim>
				</port>
			</output>
		</layer>
		<layer id="188" name="Constant_85686" type="Const" version="opset1">
			<data element_type="i64" offset="28358272" shape="" size="8"/>
			<output>
				<port id="0" precision="I64"/>
			</output>
		</layer>
		<layer id="189" name="Gather_85687" type="Gather" version="opset8">
			<data batch_dims="0"/>
			<rt_info>
				<attribute name="fused_names" value="onnx::Concat_3742, onnx::Concat_3743, onnx::Reshape_673" version="0"/>
			</rt_info>
			<input>
				<port id="0" precision="I64">
					<dim>3</dim>
				</port>
				<port id="1" precision="I64">
					<dim>2</dim>
				</port>
				<port id="2" precision="I64"/>
			</input>
			<output>
				<port id="3" precision="I64">
					<dim>2</dim>
				</port>
			</output>
		</layer>
		<layer id="190" name="onnx::Concat_3742" type="Const" version="opset1">
			<data element_type="i64" offset="28358280" shape="1" size="8"/>
			<rt_info>
				<attribute name="fused_names" value="onnx::Concat_3742" version="0"/>
			</rt_info>
			<output>
				<port id="0" names="onnx::Concat_3742" precision="I64">
					<dim>1</dim>
				</port>
			</output>
		</layer>
		<layer id="191" name="onnx::Concat_3743" type="Const" version="opset1">
			<data element_type="i64" offset="28358288" shape="1" size="8"/>
			<rt_info>
				<attribute name="fused_names" value="onnx::Concat_3743" version="0"/>
			</rt_info>
			<output>
				<port id="0" names="onnx::Concat_3743" precision="I64">
					<dim>1</dim>
				</port>
			</output>
		</layer>
		<layer id="192" name="onnx::Reshape_673" type="Concat" version="opset1">
			<data axis="0"/>
			<rt_info>
				<attribute name="fused_names" value="onnx::Concat_3742, onnx::Concat_3743, onnx::Reshape_673" version="0"/>
			</rt_info>
			<input>
				<port id="0" precision="I64">
					<dim>2</dim>
				</port>
				<port id="1" precision="I64">
					<dim>1</dim>
				</port>
				<port id="2" precision="I64">
					<dim>1</dim>
				</port>
			</input>
			<output>
				<port id="3" names="onnx::Reshape_673" precision="I64">
					<dim>4</dim>
				</port>
			</output>
		</layer>
		<layer id="193" name="onnx::Transpose_674" type="Reshape" version="opset1">
			<data special_zero="true"/>
			<rt_info>
				<attribute name="fused_names" value="onnx::Transpose_674" version="0"/>
			</rt_info>
			<input>
				<port id="0" precision="FP32">
					<dim>-1</dim>
					<dim>156</dim>
					<dim>1024</dim>
				</port>
				<port id="1" precision="I64">
					<dim>4</dim>
				</port>
			</input>
			<output>
				<port id="2" names="onnx::Transpose_674" precision="FP32">
					<dim>-1</dim>
					<dim>156</dim>
					<dim>16</dim>
					<dim>64</dim>
				</port>
			</output>
		</layer>
		<layer id="194" name="Constant_1822" type="Const" version="opset1">
			<data element_type="i64" offset="28358296" shape="4" size="32"/>
			<rt_info>
				<attribute name="fused_names" value="Constant_1822" version="0"/>
			</rt_info>
			<output>
				<port id="0" precision="I64">
					<dim>4</dim>
				</port>
			</output>
		</layer>
		<layer id="195" name="onnx::Reshape_675" type="Transpose" version="opset1">
			<rt_info>
				<attribute name="fused_names" value="onnx::Reshape_675" version="0"/>
			</rt_info>
			<input>
				<port id="0" precision="FP32">
					<dim>-1</dim>
					<dim>156</dim>
					<dim>16</dim>
					<dim>64</dim>
				</port>
				<port id="1" precision="I64">
					<dim>4</dim>
				</port>
			</input>
			<output>
				<port id="2" names="onnx::Reshape_675" precision="FP32">
					<dim>-1</dim>
					<dim>16</dim>
					<dim>156</dim>
					<dim>64</dim>
				</port>
			</output>
		</layer>
		<layer id="196" name="onnx::Gather_629" type="Const" version="opset1">
			<data element_type="i64" offset="28358272" shape="" size="8"/>
			<rt_info>
				<attribute name="fused_names" value="onnx::Gather_629" version="0"/>
			</rt_info>
			<output>
				<port id="0" names="onnx::Gather_629" precision="I64"/>
			</output>
		</layer>
		<layer id="197" name="Constant_1517" type="Const" version="opset1">
			<data element_type="i64" offset="28358272" shape="" size="8"/>
			<rt_info>
				<attribute name="fused_names" value="Constant_1517" version="0"/>
			</rt_info>
			<output>
				<port id="0" precision="I64"/>
			</output>
		</layer>
		<layer id="198" name="onnx::Unsqueeze_630" type="Gather" version="opset8">
			<data batch_dims="0"/>
			<rt_info>
				<attribute name="fused_names" value="Constant_1517, onnx::Gather_629, onnx::Unsqueeze_630" version="0"/>
			</rt_info>
			<input>
				<port id="0" precision="I64">
					<dim>3</dim>
				</port>
				<port id="1" precision="I64"/>
				<port id="2" precision="I64"/>
			</input>
			<output>
				<port id="3" names="onnx::Unsqueeze_630" precision="I64"/>
			</output>
		</layer>
		<layer id="199" name="onnx::Mul_665" type="Const" version="opset1">
			<data element_type="i64" offset="28358280" shape="" size="8"/>
			<rt_info>
				<attribute name="fused_names" value="onnx::Mul_665" version="0"/>
			</rt_info>
			<output>
				<port id="0" names="onnx::Mul_665" precision="I64"/>
			</output>
		</layer>
		<layer id="200" name="onnx::Unsqueeze_666" type="Multiply" version="opset1">
			<data auto_broadcast="numpy"/>
			<rt_info>
				<attribute name="fused_names" value="onnx::Mul_665, onnx::Unsqueeze_666" version="0"/>
			</rt_info>
			<input>
				<port id="0" precision="I64"/>
				<port id="1" precision="I64"/>
			</input>
			<output>
				<port id="2" names="onnx::Unsqueeze_666" precision="I64"/>
			</output>
		</layer>
		<layer id="201" name="Constant_1824" type="Const" version="opset1">
			<data element_type="i64" offset="28358272" shape="1" size="8"/>
			<rt_info>
				<attribute name="fused_names" value="Constant_1824" version="0"/>
			</rt_info>
			<output>
				<port id="0" precision="I64">
					<dim>1</dim>
				</port>
			</output>
		</layer>
		<layer id="202" name="onnx::Concat_678" type="Unsqueeze" version="opset1">
			<rt_info>
				<attribute name="fused_names" value="Constant_1824, onnx::Concat_678" version="0"/>
			</rt_info>
			<input>
				<port id="0" precision="I64"/>
				<port id="1" precision="I64">
					<dim>1</dim>
				</port>
			</input>
			<output>
				<port id="2" names="onnx::Concat_678" precision="I64">
					<dim>1</dim>
				</port>
			</output>
		</layer>
		<layer id="203" name="onnx::Concat_3744" type="Const" version="opset1">
			<data element_type="i64" offset="13856" shape="1" size="8"/>
			<rt_info>
				<attribute name="fused_names" value="onnx::Concat_3744" version="0"/>
			</rt_info>
			<output>
				<port id="0" names="onnx::Concat_3744" precision="I64">
					<dim>1</dim>
				</port>
			</output>
		</layer>
		<layer id="204" name="onnx::Concat_3745" type="Const" version="opset1">
			<data element_type="i64" offset="28358288" shape="1" size="8"/>
			<rt_info>
				<attribute name="fused_names" value="onnx::Concat_3745" version="0"/>
			</rt_info>
			<output>
				<port id="0" names="onnx::Concat_3745" precision="I64">
					<dim>1</dim>
				</port>
			</output>
		</layer>
		<layer id="205" name="onnx::Reshape_681" type="Concat" version="opset1">
			<data axis="0"/>
			<rt_info>
				<attribute name="fused_names" value="onnx::Concat_3744, onnx::Concat_3745, onnx::Reshape_681" version="0"/>
			</rt_info>
			<input>
				<port id="0" precision="I64">
					<dim>1</dim>
				</port>
				<port id="1" precision="I64">
					<dim>1</dim>
				</port>
				<port id="2" precision="I64">
					<dim>1</dim>
				</port>
			</input>
			<output>
				<port id="3" names="onnx::Reshape_681" precision="I64">
					<dim>3</dim>
				</port>
			</output>
		</layer>
		<layer id="206" name="onnx::MatMul_682" type="Reshape" version="opset1">
			<data special_zero="true"/>
			<rt_info>
				<attribute name="fused_names" value="onnx::MatMul_682" version="0"/>
			</rt_info>
			<input>
				<port id="0" precision="FP32">
					<dim>-1</dim>
					<dim>16</dim>
					<dim>156</dim>
					<dim>64</dim>
				</port>
				<port id="1" precision="I64">
					<dim>3</dim>
				</port>
			</input>
			<output>
				<port id="2" names="onnx::MatMul_682" precision="FP32">
					<dim>-1</dim>
					<dim>-1</dim>
					<dim>64</dim>
				</port>
			</output>
		</layer>
		<layer id="207" name="Constant_130932_compressed" type="Const" version="opset1">
			<data element_type="f16" offset="28358328" shape="1, 1, 1024" size="2048"/>
			<output>
				<port id="0" precision="FP16">
					<dim>1</dim>
					<dim>1</dim>
					<dim>1024</dim>
				</port>
			</output>
		</layer>
		<layer id="208" name="Constant_130932" type="Convert" version="opset1">
			<data destination_type="f32"/>
			<rt_info>
				<attribute name="decompression" version="0"/>
			</rt_info>
			<input>
				<port id="0" precision="FP16">
					<dim>1</dim>
					<dim>1</dim>
					<dim>1024</dim>
				</port>
			</input>
			<output>
				<port id="1" precision="FP32">
					<dim>1</dim>
					<dim>1</dim>
					<dim>1024</dim>
				</port>
			</output>
		</layer>
		<layer id="209" name="Constant_129413_compressed" type="Const" version="opset1">
			<data element_type="f16" offset="28360376" shape="1024, 1024" size="2097152"/>
			<output>
				<port id="0" precision="FP16">
					<dim>1024</dim>
					<dim>1024</dim>
				</port>
			</output>
		</layer>
		<layer id="210" name="Constant_129413" type="Convert" version="opset1">
			<data destination_type="f32"/>
			<rt_info>
				<attribute name="decompression" version="0"/>
				<attribute name="fused_names" value="onnx::Add_640, onnx::MatMul_3734" version="0"/>
			</rt_info>
			<input>
				<port id="0" precision="FP16">
					<dim>1024</dim>
					<dim>1024</dim>
				</port>
			</input>
			<output>
				<port id="1" precision="FP32">
					<dim>1024</dim>
					<dim>1024</dim>
				</port>
			</output>
		</layer>
		<layer id="211" name="onnx::Add_640" type="MatMul" version="opset1">
			<data transpose_a="false" transpose_b="true"/>
			<rt_info>
				<attribute name="fused_names" value="onnx::Add_640, onnx::MatMul_3734" version="0"/>
			</rt_info>
			<input>
				<port id="0" precision="FP32">
					<dim>-1</dim>
					<dim>156</dim>
					<dim>1024</dim>
				</port>
				<port id="1" precision="FP32">
					<dim>1024</dim>
					<dim>1024</dim>
				</port>
			</input>
			<output>
				<port id="2" names="onnx::Add_640" precision="FP32">
					<dim>-1</dim>
					<dim>156</dim>
					<dim>1024</dim>
				</port>
			</output>
		</layer>
		<layer id="212" name="onnx::Reshape_641" type="Add" version="opset1">
			<data auto_broadcast="numpy"/>
			<rt_info>
				<attribute name="fused_names" value="onnx::Reshape_641" version="0"/>
			</rt_info>
			<input>
				<port id="0" precision="FP32">
					<dim>1</dim>
					<dim>1</dim>
					<dim>1024</dim>
				</port>
				<port id="1" precision="FP32">
					<dim>-1</dim>
					<dim>156</dim>
					<dim>1024</dim>
				</port>
			</input>
			<output>
				<port id="2" names="onnx::Reshape_641" precision="FP32">
					<dim>-1</dim>
					<dim>156</dim>
					<dim>1024</dim>
				</port>
			</output>
		</layer>
		<layer id="213" name="Constant_83981" type="Const" version="opset1">
			<data element_type="i64" offset="28358272" shape="1" size="8"/>
			<rt_info>
				<attribute name="fused_names" value="Constant_1517, Constant_1529, onnx::Concat_645, onnx::Gather_629, onnx::Unsqueeze_630" version="0"/>
			</rt_info>
			<output>
				<port id="0" precision="I64">
					<dim>1</dim>
				</port>
			</output>
		</layer>
		<layer id="214" name="onnx::Unsqueeze_6300" type="Gather" version="opset8">
			<data batch_dims="0"/>
			<rt_info>
				<attribute name="fused_names" value="Constant_1517, Constant_1529, onnx::Concat_645, onnx::Gather_629, onnx::Unsqueeze_630" version="0"/>
			</rt_info>
			<input>
				<port id="0" precision="I64">
					<dim>3</dim>
				</port>
				<port id="1" precision="I64">
					<dim>1</dim>
				</port>
				<port id="2" precision="I64"/>
			</input>
			<output>
				<port id="3" names="onnx::Concat_645" precision="I64">
					<dim>1</dim>
				</port>
			</output>
		</layer>
		<layer id="215" name="onnx::Concat_3735" type="Const" version="opset1">
			<data element_type="i64" offset="13856" shape="1" size="8"/>
			<rt_info>
				<attribute name="fused_names" value="onnx::Concat_3735" version="0"/>
			</rt_info>
			<output>
				<port id="0" names="onnx::Concat_3735" precision="I64">
					<dim>1</dim>
				</port>
			</output>
		</layer>
		<layer id="216" name="onnx::Concat_3736" type="Const" version="opset1">
			<data element_type="i64" offset="28358280" shape="1" size="8"/>
			<rt_info>
				<attribute name="fused_names" value="onnx::Concat_3736" version="0"/>
			</rt_info>
			<output>
				<port id="0" names="onnx::Concat_3736" precision="I64">
					<dim>1</dim>
				</port>
			</output>
		</layer>
		<layer id="217" name="onnx::Concat_3737" type="Const" version="opset1">
			<data element_type="i64" offset="28358288" shape="1" size="8"/>
			<rt_info>
				<attribute name="fused_names" value="onnx::Concat_3737" version="0"/>
			</rt_info>
			<output>
				<port id="0" names="onnx::Concat_3737" precision="I64">
					<dim>1</dim>
				</port>
			</output>
		</layer>
		<layer id="218" name="onnx::Reshape_649" type="Concat" version="opset1">
			<data axis="0"/>
			<rt_info>
				<attribute name="fused_names" value="onnx::Concat_3735, onnx::Concat_3736, onnx::Concat_3737, onnx::Reshape_649" version="0"/>
			</rt_info>
			<input>
				<port id="0" precision="I64">
					<dim>1</dim>
				</port>
				<port id="1" precision="I64">
					<dim>1</dim>
				</port>
				<port id="2" precision="I64">
					<dim>1</dim>
				</port>
				<port id="3" precision="I64">
					<dim>1</dim>
				</port>
			</input>
			<output>
				<port id="4" names="onnx::Reshape_649" precision="I64">
					<dim>4</dim>
				</port>
			</output>
		</layer>
		<layer id="219" name="onnx::Transpose_650" type="Reshape" version="opset1">
			<data special_zero="true"/>
			<rt_info>
				<attribute name="fused_names" value="onnx::Transpose_650" version="0"/>
			</rt_info>
			<input>
				<port id="0" precision="FP32">
					<dim>-1</dim>
					<dim>156</dim>
					<dim>1024</dim>
				</port>
				<port id="1" precision="I64">
					<dim>4</dim>
				</port>
			</input>
			<output>
				<port id="2" names="onnx::Transpose_650" precision="FP32">
					<dim>-1</dim>
					<dim>-1</dim>
					<dim>16</dim>
					<dim>64</dim>
				</port>
			</output>
		</layer>
		<layer id="220" name="Constant_1608" type="Const" version="opset1">
			<data element_type="i64" offset="28358296" shape="4" size="32"/>
			<rt_info>
				<attribute name="fused_names" value="Constant_1608" version="0"/>
			</rt_info>
			<output>
				<port id="0" precision="I64">
					<dim>4</dim>
				</port>
			</output>
		</layer>
		<layer id="221" name="onnx::Reshape_651" type="Transpose" version="opset1">
			<rt_info>
				<attribute name="fused_names" value="onnx::Reshape_651" version="0"/>
			</rt_info>
			<input>
				<port id="0" precision="FP32">
					<dim>-1</dim>
					<dim>-1</dim>
					<dim>16</dim>
					<dim>64</dim>
				</port>
				<port id="1" precision="I64">
					<dim>4</dim>
				</port>
			</input>
			<output>
				<port id="2" names="onnx::Reshape_651" precision="FP32">
					<dim>-1</dim>
					<dim>16</dim>
					<dim>-1</dim>
					<dim>64</dim>
				</port>
			</output>
		</layer>
		<layer id="222" name="Constant_1981" type="Const" version="opset1">
			<data element_type="i64" offset="28358272" shape="1" size="8"/>
			<rt_info>
				<attribute name="fused_names" value="Constant_1981" version="0"/>
			</rt_info>
			<output>
				<port id="0" precision="I64">
					<dim>1</dim>
				</port>
			</output>
		</layer>
		<layer id="223" name="onnx::Concat_685" type="Unsqueeze" version="opset1">
			<rt_info>
				<attribute name="fused_names" value="Constant_1981, onnx::Concat_685" version="0"/>
			</rt_info>
			<input>
				<port id="0" precision="I64"/>
				<port id="1" precision="I64">
					<dim>1</dim>
				</port>
			</input>
			<output>
				<port id="2" names="onnx::Concat_685" precision="I64">
					<dim>1</dim>
				</port>
			</output>
		</layer>
		<layer id="224" name="onnx::Concat_3746" type="Const" version="opset1">
			<data element_type="i64" offset="13856" shape="1" size="8"/>
			<rt_info>
				<attribute name="fused_names" value="onnx::Concat_3746" version="0"/>
			</rt_info>
			<output>
				<port id="0" names="onnx::Concat_3746" precision="I64">
					<dim>1</dim>
				</port>
			</output>
		</layer>
		<layer id="225" name="onnx::Concat_3747" type="Const" version="opset1">
			<data element_type="i64" offset="28358288" shape="1" size="8"/>
			<rt_info>
				<attribute name="fused_names" value="onnx::Concat_3747" version="0"/>
			</rt_info>
			<output>
				<port id="0" names="onnx::Concat_3747" precision="I64">
					<dim>1</dim>
				</port>
			</output>
		</layer>
		<layer id="226" name="onnx::Reshape_688" type="Concat" version="opset1">
			<data axis="0"/>
			<rt_info>
				<attribute name="fused_names" value="onnx::Concat_3746, onnx::Concat_3747, onnx::Reshape_688" version="0"/>
			</rt_info>
			<input>
				<port id="0" precision="I64">
					<dim>1</dim>
				</port>
				<port id="1" precision="I64">
					<dim>1</dim>
				</port>
				<port id="2" precision="I64">
					<dim>1</dim>
				</port>
			</input>
			<output>
				<port id="3" names="onnx::Reshape_688" precision="I64">
					<dim>3</dim>
				</port>
			</output>
		</layer>
		<layer id="227" name="onnx::Transpose_689" type="Reshape" version="opset1">
			<data special_zero="true"/>
			<rt_info>
				<attribute name="fused_names" value="onnx::Transpose_689" version="0"/>
			</rt_info>
			<input>
				<port id="0" precision="FP32">
					<dim>-1</dim>
					<dim>16</dim>
					<dim>-1</dim>
					<dim>64</dim>
				</port>
				<port id="1" precision="I64">
					<dim>3</dim>
				</port>
			</input>
			<output>
				<port id="2" names="onnx::Transpose_689" precision="FP32">
					<dim>-1</dim>
					<dim>-1</dim>
					<dim>64</dim>
				</port>
			</output>
		</layer>
		<layer id="228" name="Constant_2295" type="Const" version="opset1">
			<data element_type="i64" offset="13832" shape="3" size="24"/>
			<rt_info>
				<attribute name="fused_names" value="Constant_2295" version="0"/>
			</rt_info>
			<output>
				<port id="0" precision="I64">
					<dim>3</dim>
				</port>
			</output>
		</layer>
		<layer id="229" name="onnx::MatMul_697" type="Transpose" version="opset1">
			<rt_info>
				<attribute name="fused_names" value="onnx::MatMul_697" version="0"/>
			</rt_info>
			<input>
				<port id="0" precision="FP32">
					<dim>-1</dim>
					<dim>-1</dim>
					<dim>64</dim>
				</port>
				<port id="1" precision="I64">
					<dim>3</dim>
				</port>
			</input>
			<output>
				<port id="2" names="onnx::MatMul_697" precision="FP32">
					<dim>-1</dim>
					<dim>64</dim>
					<dim>-1</dim>
				</port>
			</output>
		</layer>
		<layer id="230" name="attn_weights" type="MatMul" version="opset1">
			<data transpose_a="false" transpose_b="false"/>
			<rt_info>
				<attribute name="fused_names" value="attn_weights" version="0"/>
			</rt_info>
			<input>
				<port id="0" precision="FP32">
					<dim>-1</dim>
					<dim>-1</dim>
					<dim>64</dim>
				</port>
				<port id="1" precision="FP32">
					<dim>-1</dim>
					<dim>64</dim>
					<dim>-1</dim>
				</port>
			</input>
			<output>
				<port id="2" names="attn_weights" precision="FP32">
					<dim>-1</dim>
					<dim>-1</dim>
					<dim>-1</dim>
				</port>
			</output>
		</layer>
		<layer id="231" name="ShapeOf_2298" type="ShapeOf" version="opset1">
			<rt_info>
				<attribute name="fused_names" value="ShapeOf_2298, ShapeOf_2372" version="0"/>
			</rt_info>
			<input>
				<port id="0" precision="FP32">
					<dim>-1</dim>
					<dim>-1</dim>
					<dim>-1</dim>
				</port>
			</input>
			<output>
				<port id="1" precision="I64">
					<dim>3</dim>
				</port>
			</output>
		</layer>
		<layer id="232" name="Constant_2301" type="Const" version="opset1">
			<data element_type="i64" offset="28358272" shape="1" size="8"/>
			<rt_info>
				<attribute name="fused_names" value="Constant_2301" version="0"/>
			</rt_info>
			<output>
				<port id="0" precision="I64">
					<dim>1</dim>
				</port>
			</output>
		</layer>
		<layer id="233" name="Constant_2300" type="Const" version="opset1">
			<data element_type="i64" offset="30457528" shape="1" size="8"/>
			<rt_info>
				<attribute name="fused_names" value="Constant_2300" version="0"/>
			</rt_info>
			<output>
				<port id="0" precision="I64">
					<dim>1</dim>
				</port>
			</output>
		</layer>
		<layer id="234" name="Constant_2302" type="Const" version="opset1">
			<data element_type="i64" offset="2560" shape="1" size="8"/>
			<rt_info>
				<attribute name="fused_names" value="Constant_2302" version="0"/>
			</rt_info>
			<output>
				<port id="0" precision="I64">
					<dim>1</dim>
				</port>
			</output>
		</layer>
		<layer id="235" name="StridedSlice_2303" type="StridedSlice" version="opset1">
			<data begin_mask="0" ellipsis_mask="" end_mask="0" new_axis_mask="" shrink_axis_mask=""/>
			<rt_info>
				<attribute name="fused_names" value="Constant_2300, Constant_2301, Constant_2302, StridedSlice_2303" version="0"/>
			</rt_info>
			<input>
				<port id="0" precision="I64">
					<dim>3</dim>
				</port>
				<port id="1" precision="I64">
					<dim>1</dim>
				</port>
				<port id="2" precision="I64">
					<dim>1</dim>
				</port>
				<port id="3" precision="I64">
					<dim>1</dim>
				</port>
			</input>
			<output>
				<port id="4" precision="I64">
					<dim>2</dim>
				</port>
			</output>
		</layer>
		<layer id="236" name="Constant_2304" type="Const" version="opset1">
			<data element_type="i64" offset="28358272" shape="" size="8"/>
			<rt_info>
				<attribute name="fused_names" value="Constant_2304" version="0"/>
			</rt_info>
			<output>
				<port id="0" precision="I64"/>
			</output>
		</layer>
		<layer id="237" name="ReduceProd_2305" type="ReduceProd" version="opset1">
			<data keep_dims="true"/>
			<rt_info>
				<attribute name="fused_names" value="Constant_2304, ReduceProd_2305" version="0"/>
			</rt_info>
			<input>
				<port id="0" precision="I64">
					<dim>2</dim>
				</port>
				<port id="1" precision="I64"/>
			</input>
			<output>
				<port id="2" precision="I64">
					<dim>1</dim>
				</port>
			</output>
		</layer>
		<layer id="238" name="Constant_2306" type="Const" version="opset1">
			<data element_type="i64" offset="13856" shape="1" size="8"/>
			<rt_info>
				<attribute name="fused_names" value="Constant_2306" version="0"/>
			</rt_info>
			<output>
				<port id="0" precision="I64">
					<dim>1</dim>
				</port>
			</output>
		</layer>
		<layer id="239" name="Concat_2307" type="Concat" version="opset1">
			<data axis="0"/>
			<rt_info>
				<attribute name="fused_names" value="Concat_2307, Constant_2306" version="0"/>
			</rt_info>
			<input>
				<port id="0" precision="I64">
					<dim>1</dim>
				</port>
				<port id="1" precision="I64">
					<dim>1</dim>
				</port>
			</input>
			<output>
				<port id="2" precision="I64">
					<dim>2</dim>
				</port>
			</output>
		</layer>
		<layer id="240" name="Reshape_2308" type="Reshape" version="opset1">
			<data special_zero="true"/>
			<rt_info>
				<attribute name="fused_names" value="Reshape_2308" version="0"/>
			</rt_info>
			<input>
				<port id="0" precision="FP32">
					<dim>-1</dim>
					<dim>-1</dim>
					<dim>-1</dim>
				</port>
				<port id="1" precision="I64">
					<dim>2</dim>
				</port>
			</input>
			<output>
				<port id="2" precision="FP32">
					<dim>-1</dim>
					<dim>-1</dim>
				</port>
			</output>
		</layer>
		<layer id="241" name="Softmax_2371" type="SoftMax" version="opset8">
			<data axis="1"/>
			<rt_info>
				<attribute name="fused_names" value="Softmax_2371" version="0"/>
			</rt_info>
			<input>
				<port id="0" precision="FP32">
					<dim>-1</dim>
					<dim>-1</dim>
				</port>
			</input>
			<output>
				<port id="1" precision="FP32">
					<dim>-1</dim>
					<dim>-1</dim>
				</port>
			</output>
		</layer>
		<layer id="242" name="attn_weights.3" type="Reshape" version="opset1">
			<data special_zero="false"/>
			<rt_info>
				<attribute name="fused_names" value="attn_weights.3" version="0"/>
			</rt_info>
			<input>
				<port id="0" precision="FP32">
					<dim>-1</dim>
					<dim>-1</dim>
				</port>
				<port id="1" precision="I64">
					<dim>3</dim>
				</port>
			</input>
			<output>
				<port id="2" names="attn_weights.3" precision="FP32">
					<dim>-1</dim>
					<dim>-1</dim>
					<dim>-1</dim>
				</port>
			</output>
		</layer>
		<layer id="243" name="Constant_130933_compressed" type="Const" version="opset1">
			<data element_type="f16" offset="30457536" shape="1, 1, 1024" size="2048"/>
			<output>
				<port id="0" precision="FP16">
					<dim>1</dim>
					<dim>1</dim>
					<dim>1024</dim>
				</port>
			</output>
		</layer>
		<layer id="244" name="Constant_130933" type="Convert" version="opset1">
			<data destination_type="f32"/>
			<rt_info>
				<attribute name="decompression" version="0"/>
			</rt_info>
			<input>
				<port id="0" precision="FP16">
					<dim>1</dim>
					<dim>1</dim>
					<dim>1024</dim>
				</port>
			</input>
			<output>
				<port id="1" precision="FP32">
					<dim>1</dim>
					<dim>1</dim>
					<dim>1024</dim>
				</port>
			</output>
		</layer>
		<layer id="245" name="Constant_129420_compressed" type="Const" version="opset1">
			<data element_type="f16" offset="30459584" shape="1024, 1024" size="2097152"/>
			<output>
				<port id="0" precision="FP16">
					<dim>1024</dim>
					<dim>1024</dim>
				</port>
			</output>
		</layer>
		<layer id="246" name="Constant_129420" type="Convert" version="opset1">
			<data destination_type="f32"/>
			<rt_info>
				<attribute name="decompression" version="0"/>
				<attribute name="fused_names" value="onnx::Add_653, onnx::MatMul_3738" version="0"/>
			</rt_info>
			<input>
				<port id="0" precision="FP16">
					<dim>1024</dim>
					<dim>1024</dim>
				</port>
			</input>
			<output>
				<port id="1" precision="FP32">
					<dim>1024</dim>
					<dim>1024</dim>
				</port>
			</output>
		</layer>
		<layer id="247" name="onnx::Add_653" type="MatMul" version="opset1">
			<data transpose_a="false" transpose_b="true"/>
			<rt_info>
				<attribute name="fused_names" value="onnx::Add_653, onnx::MatMul_3738" version="0"/>
			</rt_info>
			<input>
				<port id="0" precision="FP32">
					<dim>-1</dim>
					<dim>156</dim>
					<dim>1024</dim>
				</port>
				<port id="1" precision="FP32">
					<dim>1024</dim>
					<dim>1024</dim>
				</port>
			</input>
			<output>
				<port id="2" names="onnx::Add_653" precision="FP32">
					<dim>-1</dim>
					<dim>156</dim>
					<dim>1024</dim>
				</port>
			</output>
		</layer>
		<layer id="248" name="onnx::Reshape_654" type="Add" version="opset1">
			<data auto_broadcast="numpy"/>
			<rt_info>
				<attribute name="fused_names" value="onnx::Reshape_654" version="0"/>
			</rt_info>
			<input>
				<port id="0" precision="FP32">
					<dim>1</dim>
					<dim>1</dim>
					<dim>1024</dim>
				</port>
				<port id="1" precision="FP32">
					<dim>-1</dim>
					<dim>156</dim>
					<dim>1024</dim>
				</port>
			</input>
			<output>
				<port id="2" names="onnx::Reshape_654" precision="FP32">
					<dim>-1</dim>
					<dim>156</dim>
					<dim>1024</dim>
				</port>
			</output>
		</layer>
		<layer id="249" name="Constant_83990" type="Const" version="opset1">
			<data element_type="i64" offset="28358272" shape="1" size="8"/>
			<rt_info>
				<attribute name="fused_names" value="Constant_1517, Constant_1612, onnx::Concat_658, onnx::Gather_629, onnx::Unsqueeze_630" version="0"/>
			</rt_info>
			<output>
				<port id="0" precision="I64">
					<dim>1</dim>
				</port>
			</output>
		</layer>
		<layer id="250" name="onnx::Unsqueeze_6301" type="Gather" version="opset8">
			<data batch_dims="0"/>
			<rt_info>
				<attribute name="fused_names" value="Constant_1517, Constant_1612, onnx::Concat_658, onnx::Gather_629, onnx::Unsqueeze_630" version="0"/>
			</rt_info>
			<input>
				<port id="0" precision="I64">
					<dim>3</dim>
				</port>
				<port id="1" precision="I64">
					<dim>1</dim>
				</port>
				<port id="2" precision="I64"/>
			</input>
			<output>
				<port id="3" names="onnx::Concat_658" precision="I64">
					<dim>1</dim>
				</port>
			</output>
		</layer>
		<layer id="251" name="onnx::Concat_3739" type="Const" version="opset1">
			<data element_type="i64" offset="13856" shape="1" size="8"/>
			<rt_info>
				<attribute name="fused_names" value="onnx::Concat_3739" version="0"/>
			</rt_info>
			<output>
				<port id="0" names="onnx::Concat_3739" precision="I64">
					<dim>1</dim>
				</port>
			</output>
		</layer>
		<layer id="252" name="onnx::Concat_3740" type="Const" version="opset1">
			<data element_type="i64" offset="28358280" shape="1" size="8"/>
			<rt_info>
				<attribute name="fused_names" value="onnx::Concat_3740" version="0"/>
			</rt_info>
			<output>
				<port id="0" names="onnx::Concat_3740" precision="I64">
					<dim>1</dim>
				</port>
			</output>
		</layer>
		<layer id="253" name="onnx::Concat_3741" type="Const" version="opset1">
			<data element_type="i64" offset="28358288" shape="1" size="8"/>
			<rt_info>
				<attribute name="fused_names" value="onnx::Concat_3741" version="0"/>
			</rt_info>
			<output>
				<port id="0" names="onnx::Concat_3741" precision="I64">
					<dim>1</dim>
				</port>
			</output>
		</layer>
		<layer id="254" name="onnx::Reshape_662" type="Concat" version="opset1">
			<data axis="0"/>
			<rt_info>
				<attribute name="fused_names" value="onnx::Concat_3739, onnx::Concat_3740, onnx::Concat_3741, onnx::Reshape_662" version="0"/>
			</rt_info>
			<input>
				<port id="0" precision="I64">
					<dim>1</dim>
				</port>
				<port id="1" precision="I64">
					<dim>1</dim>
				</port>
				<port id="2" precision="I64">
					<dim>1</dim>
				</port>
				<port id="3" precision="I64">
					<dim>1</dim>
				</port>
			</input>
			<output>
				<port id="4" names="onnx::Reshape_662" precision="I64">
					<dim>4</dim>
				</port>
			</output>
		</layer>
		<layer id="255" name="onnx::Transpose_663" type="Reshape" version="opset1">
			<data special_zero="true"/>
			<rt_info>
				<attribute name="fused_names" value="onnx::Transpose_663" version="0"/>
			</rt_info>
			<input>
				<port id="0" precision="FP32">
					<dim>-1</dim>
					<dim>156</dim>
					<dim>1024</dim>
				</port>
				<port id="1" precision="I64">
					<dim>4</dim>
				</port>
			</input>
			<output>
				<port id="2" names="onnx::Transpose_663" precision="FP32">
					<dim>-1</dim>
					<dim>-1</dim>
					<dim>16</dim>
					<dim>64</dim>
				</port>
			</output>
		</layer>
		<layer id="256" name="Constant_1691" type="Const" version="opset1">
			<data element_type="i64" offset="28358296" shape="4" size="32"/>
			<rt_info>
				<attribute name="fused_names" value="Constant_1691" version="0"/>
			</rt_info>
			<output>
				<port id="0" precision="I64">
					<dim>4</dim>
				</port>
			</output>
		</layer>
		<layer id="257" name="onnx::Reshape_664" type="Transpose" version="opset1">
			<rt_info>
				<attribute name="fused_names" value="onnx::Reshape_664" version="0"/>
			</rt_info>
			<input>
				<port id="0" precision="FP32">
					<dim>-1</dim>
					<dim>-1</dim>
					<dim>16</dim>
					<dim>64</dim>
				</port>
				<port id="1" precision="I64">
					<dim>4</dim>
				</port>
			</input>
			<output>
				<port id="2" names="onnx::Reshape_664" precision="FP32">
					<dim>-1</dim>
					<dim>16</dim>
					<dim>-1</dim>
					<dim>64</dim>
				</port>
			</output>
		</layer>
		<layer id="258" name="Constant_2138" type="Const" version="opset1">
			<data element_type="i64" offset="28358272" shape="1" size="8"/>
			<rt_info>
				<attribute name="fused_names" value="Constant_2138" version="0"/>
			</rt_info>
			<output>
				<port id="0" precision="I64">
					<dim>1</dim>
				</port>
			</output>
		</layer>
		<layer id="259" name="onnx::Concat_692" type="Unsqueeze" version="opset1">
			<rt_info>
				<attribute name="fused_names" value="Constant_2138, onnx::Concat_692" version="0"/>
			</rt_info>
			<input>
				<port id="0" precision="I64"/>
				<port id="1" precision="I64">
					<dim>1</dim>
				</port>
			</input>
			<output>
				<port id="2" names="onnx::Concat_692" precision="I64">
					<dim>1</dim>
				</port>
			</output>
		</layer>
		<layer id="260" name="onnx::Concat_3748" type="Const" version="opset1">
			<data element_type="i64" offset="13856" shape="1" size="8"/>
			<rt_info>
				<attribute name="fused_names" value="onnx::Concat_3748" version="0"/>
			</rt_info>
			<output>
				<port id="0" names="onnx::Concat_3748" precision="I64">
					<dim>1</dim>
				</port>
			</output>
		</layer>
		<layer id="261" name="onnx::Concat_3749" type="Const" version="opset1">
			<data element_type="i64" offset="28358288" shape="1" size="8"/>
			<rt_info>
				<attribute name="fused_names" value="onnx::Concat_3749" version="0"/>
			</rt_info>
			<output>
				<port id="0" names="onnx::Concat_3749" precision="I64">
					<dim>1</dim>
				</port>
			</output>
		</layer>
		<layer id="262" name="onnx::Reshape_695" type="Concat" version="opset1">
			<data axis="0"/>
			<rt_info>
				<attribute name="fused_names" value="onnx::Concat_3748, onnx::Concat_3749, onnx::Reshape_695" version="0"/>
			</rt_info>
			<input>
				<port id="0" precision="I64">
					<dim>1</dim>
				</port>
				<port id="1" precision="I64">
					<dim>1</dim>
				</port>
				<port id="2" precision="I64">
					<dim>1</dim>
				</port>
			</input>
			<output>
				<port id="3" names="onnx::Reshape_695" precision="I64">
					<dim>3</dim>
				</port>
			</output>
		</layer>
		<layer id="263" name="onnx::MatMul_696" type="Reshape" version="opset1">
			<data special_zero="true"/>
			<rt_info>
				<attribute name="fused_names" value="onnx::MatMul_696" version="0"/>
			</rt_info>
			<input>
				<port id="0" precision="FP32">
					<dim>-1</dim>
					<dim>16</dim>
					<dim>-1</dim>
					<dim>64</dim>
				</port>
				<port id="1" precision="I64">
					<dim>3</dim>
				</port>
			</input>
			<output>
				<port id="2" names="onnx::MatMul_696" precision="FP32">
					<dim>-1</dim>
					<dim>-1</dim>
					<dim>64</dim>
				</port>
			</output>
		</layer>
		<layer id="264" name="onnx::Reshape_700" type="MatMul" version="opset1">
			<data transpose_a="false" transpose_b="false"/>
			<rt_info>
				<attribute name="fused_names" value="onnx::Reshape_700" version="0"/>
			</rt_info>
			<input>
				<port id="0" precision="FP32">
					<dim>-1</dim>
					<dim>-1</dim>
					<dim>-1</dim>
				</port>
				<port id="1" precision="FP32">
					<dim>-1</dim>
					<dim>-1</dim>
					<dim>64</dim>
				</port>
			</input>
			<output>
				<port id="2" names="onnx::Reshape_700" precision="FP32">
					<dim>-1</dim>
					<dim>-1</dim>
					<dim>64</dim>
				</port>
			</output>
		</layer>
		<layer id="265" name="Constant_83999" type="Const" version="opset1">
			<data element_type="i64" offset="28358272" shape="1" size="8"/>
			<rt_info>
				<attribute name="fused_names" value="Constant_1517, Constant_2385, onnx::Concat_703, onnx::Gather_629, onnx::Unsqueeze_630" version="0"/>
			</rt_info>
			<output>
				<port id="0" precision="I64">
					<dim>1</dim>
				</port>
			</output>
		</layer>
		<layer id="266" name="onnx::Unsqueeze_6302" type="Gather" version="opset8">
			<data batch_dims="0"/>
			<rt_info>
				<attribute name="fused_names" value="Constant_1517, Constant_2385, onnx::Concat_703, onnx::Gather_629, onnx::Unsqueeze_630" version="0"/>
			</rt_info>
			<input>
				<port id="0" precision="I64">
					<dim>3</dim>
				</port>
				<port id="1" precision="I64">
					<dim>1</dim>
				</port>
				<port id="2" precision="I64"/>
			</input>
			<output>
				<port id="3" names="onnx::Concat_703" precision="I64">
					<dim>1</dim>
				</port>
			</output>
		</layer>
		<layer id="267" name="onnx::Concat_3750" type="Const" version="opset1">
			<data element_type="i64" offset="28358280" shape="1" size="8"/>
			<rt_info>
				<attribute name="fused_names" value="onnx::Concat_3750" version="0"/>
			</rt_info>
			<output>
				<port id="0" names="onnx::Concat_3750" precision="I64">
					<dim>1</dim>
				</port>
			</output>
		</layer>
		<layer id="268" name="Constant_84008" type="Const" version="opset1">
			<data element_type="i64" offset="2560" shape="1" size="8"/>
			<rt_info>
				<attribute name="fused_names" value="Constant_1521, Constant_2387, onnx::Concat_705, onnx::Gather_632, onnx::Unsqueeze_633" version="0"/>
			</rt_info>
			<output>
				<port id="0" precision="I64">
					<dim>1</dim>
				</port>
			</output>
		</layer>
		<layer id="269" name="Constant_1521" type="Const" version="opset1">
			<data element_type="i64" offset="28358272" shape="" size="8"/>
			<rt_info>
				<attribute name="fused_names" value="Constant_1521" version="0"/>
			</rt_info>
			<output>
				<port id="0" precision="I64"/>
			</output>
		</layer>
		<layer id="270" name="onnx::Unsqueeze_633" type="Gather" version="opset8">
			<data batch_dims="0"/>
			<rt_info>
				<attribute name="fused_names" value="Constant_1521, Constant_2387, onnx::Concat_705, onnx::Gather_632, onnx::Unsqueeze_633" version="0"/>
			</rt_info>
			<input>
				<port id="0" precision="I64">
					<dim>3</dim>
				</port>
				<port id="1" precision="I64">
					<dim>1</dim>
				</port>
				<port id="2" precision="I64"/>
			</input>
			<output>
				<port id="3" names="onnx::Concat_705" precision="I64">
					<dim>1</dim>
				</port>
			</output>
		</layer>
		<layer id="271" name="onnx::Concat_3751" type="Const" version="opset1">
			<data element_type="i64" offset="28358288" shape="1" size="8"/>
			<rt_info>
				<attribute name="fused_names" value="onnx::Concat_3751" version="0"/>
			</rt_info>
			<output>
				<port id="0" names="onnx::Concat_3751" precision="I64">
					<dim>1</dim>
				</port>
			</output>
		</layer>
		<layer id="272" name="onnx::Reshape_707" type="Concat" version="opset1">
			<data axis="0"/>
			<rt_info>
				<attribute name="fused_names" value="onnx::Concat_3750, onnx::Concat_3751, onnx::Reshape_707" version="0"/>
			</rt_info>
			<input>
				<port id="0" precision="I64">
					<dim>1</dim>
				</port>
				<port id="1" precision="I64">
					<dim>1</dim>
				</port>
				<port id="2" precision="I64">
					<dim>1</dim>
				</port>
				<port id="3" precision="I64">
					<dim>1</dim>
				</port>
			</input>
			<output>
				<port id="4" names="onnx::Reshape_707" precision="I64">
					<dim>4</dim>
				</port>
			</output>
		</layer>
		<layer id="273" name="onnx::Transpose_708" type="Reshape" version="opset1">
			<data special_zero="true"/>
			<rt_info>
				<attribute name="fused_names" value="onnx::Transpose_708" version="0"/>
			</rt_info>
			<input>
				<port id="0" precision="FP32">
					<dim>-1</dim>
					<dim>-1</dim>
					<dim>64</dim>
				</port>
				<port id="1" precision="I64">
					<dim>4</dim>
				</port>
			</input>
			<output>
				<port id="2" names="onnx::Transpose_708" precision="FP32">
					<dim>-1</dim>
					<dim>16</dim>
					<dim>156</dim>
					<dim>64</dim>
				</port>
			</output>
		</layer>
		<layer id="274" name="Constant_2512" type="Const" version="opset1">
			<data element_type="i64" offset="28358296" shape="4" size="32"/>
			<rt_info>
				<attribute name="fused_names" value="Constant_2512" version="0"/>
			</rt_info>
			<output>
				<port id="0" precision="I64">
					<dim>4</dim>
				</port>
			</output>
		</layer>
		<layer id="275" name="onnx::Reshape_709" type="Transpose" version="opset1">
			<rt_info>
				<attribute name="fused_names" value="onnx::Reshape_709" version="0"/>
			</rt_info>
			<input>
				<port id="0" precision="FP32">
					<dim>-1</dim>
					<dim>16</dim>
					<dim>156</dim>
					<dim>64</dim>
				</port>
				<port id="1" precision="I64">
					<dim>4</dim>
				</port>
			</input>
			<output>
				<port id="2" names="onnx::Reshape_709" precision="FP32">
					<dim>-1</dim>
					<dim>156</dim>
					<dim>16</dim>
					<dim>64</dim>
				</port>
			</output>
		</layer>
		<layer id="276" name="Constant_85690" type="Const" version="opset1">
			<data element_type="i64" offset="28358256" shape="2" size="16"/>
			<rt_info>
				<attribute name="fused_names" value="onnx::Concat_3752, onnx::Reshape_714" version="0"/>
			</rt_info>
			<output>
				<port id="0" precision="I64">
					<dim>2</dim>
				</port>
			</output>
		</layer>
		<layer id="277" name="Constant_85691" type="Const" version="opset1">
			<data element_type="i64" offset="28358272" shape="" size="8"/>
			<output>
				<port id="0" precision="I64"/>
			</output>
		</layer>
		<layer id="278" name="Gather_85692" type="Gather" version="opset8">
			<data batch_dims="0"/>
			<rt_info>
				<attribute name="fused_names" value="onnx::Concat_3752, onnx::Reshape_714" version="0"/>
			</rt_info>
			<input>
				<port id="0" precision="I64">
					<dim>3</dim>
				</port>
				<port id="1" precision="I64">
					<dim>2</dim>
				</port>
				<port id="2" precision="I64"/>
			</input>
			<output>
				<port id="3" precision="I64">
					<dim>2</dim>
				</port>
			</output>
		</layer>
		<layer id="279" name="onnx::Concat_3752" type="Const" version="opset1">
			<data element_type="i64" offset="32556736" shape="1" size="8"/>
			<rt_info>
				<attribute name="fused_names" value="onnx::Concat_3752" version="0"/>
			</rt_info>
			<output>
				<port id="0" names="onnx::Concat_3752" precision="I64">
					<dim>1</dim>
				</port>
			</output>
		</layer>
		<layer id="280" name="onnx::Reshape_714" type="Concat" version="opset1">
			<data axis="0"/>
			<rt_info>
				<attribute name="fused_names" value="onnx::Concat_3752, onnx::Reshape_714" version="0"/>
			</rt_info>
			<input>
				<port id="0" precision="I64">
					<dim>2</dim>
				</port>
				<port id="1" precision="I64">
					<dim>1</dim>
				</port>
			</input>
			<output>
				<port id="2" names="onnx::Reshape_714" precision="I64">
					<dim>3</dim>
				</port>
			</output>
		</layer>
		<layer id="281" name="onnx::MatMul_715" type="Reshape" version="opset1">
			<data special_zero="true"/>
			<rt_info>
				<attribute name="fused_names" value="onnx::MatMul_715" version="0"/>
			</rt_info>
			<input>
				<port id="0" precision="FP32">
					<dim>-1</dim>
					<dim>156</dim>
					<dim>16</dim>
					<dim>64</dim>
				</port>
				<port id="1" precision="I64">
					<dim>3</dim>
				</port>
			</input>
			<output>
				<port id="2" names="onnx::MatMul_715" precision="FP32">
					<dim>-1</dim>
					<dim>156</dim>
					<dim>1024</dim>
				</port>
			</output>
		</layer>
		<layer id="282" name="Constant_129427_compressed" type="Const" version="opset1">
			<data element_type="f16" offset="32556744" shape="1024, 1024" size="2097152"/>
			<output>
				<port id="0" precision="FP16">
					<dim>1024</dim>
					<dim>1024</dim>
				</port>
			</output>
		</layer>
		<layer id="283" name="Constant_129427" type="Convert" version="opset1">
			<data destination_type="f32"/>
			<rt_info>
				<attribute name="decompression" version="0"/>
				<attribute name="fused_names" value="onnx::Add_717, onnx::MatMul_3753" version="0"/>
			</rt_info>
			<input>
				<port id="0" precision="FP16">
					<dim>1024</dim>
					<dim>1024</dim>
				</port>
			</input>
			<output>
				<port id="1" precision="FP32">
					<dim>1024</dim>
					<dim>1024</dim>
				</port>
			</output>
		</layer>
		<layer id="284" name="onnx::Add_717" type="MatMul" version="opset1">
			<data transpose_a="false" transpose_b="true"/>
			<rt_info>
				<attribute name="fused_names" value="onnx::Add_717, onnx::MatMul_3753" version="0"/>
			</rt_info>
			<input>
				<port id="0" precision="FP32">
					<dim>-1</dim>
					<dim>156</dim>
					<dim>1024</dim>
				</port>
				<port id="1" precision="FP32">
					<dim>1024</dim>
					<dim>1024</dim>
				</port>
			</input>
			<output>
				<port id="2" names="onnx::Add_717" precision="FP32">
					<dim>-1</dim>
					<dim>156</dim>
					<dim>1024</dim>
				</port>
			</output>
		</layer>
		<layer id="285" name="input.71" type="Add" version="opset1">
			<data auto_broadcast="numpy"/>
			<rt_info>
				<attribute name="fused_names" value="input.71" version="0"/>
			</rt_info>
			<input>
				<port id="0" precision="FP32">
					<dim>1</dim>
					<dim>1</dim>
					<dim>1024</dim>
				</port>
				<port id="1" precision="FP32">
					<dim>-1</dim>
					<dim>156</dim>
					<dim>1024</dim>
				</port>
			</input>
			<output>
				<port id="2" names="input.71" precision="FP32">
					<dim>-1</dim>
					<dim>156</dim>
					<dim>1024</dim>
				</port>
			</output>
		</layer>
		<layer id="286" name="input.75" type="Add" version="opset1">
			<data auto_broadcast="numpy"/>
			<rt_info>
				<attribute name="fused_names" value="input.75" version="0"/>
			</rt_info>
			<input>
				<port id="0" precision="FP32">
					<dim>-1</dim>
					<dim>156</dim>
					<dim>1024</dim>
				</port>
				<port id="1" precision="FP32">
					<dim>-1</dim>
					<dim>156</dim>
					<dim>1024</dim>
				</port>
			</input>
			<output>
				<port id="2" names="input.75" precision="FP32">
					<dim>-1</dim>
					<dim>156</dim>
					<dim>1024</dim>
				</port>
			</output>
		</layer>
		<layer id="287" name="Constant_130938_compressed" type="Const" version="opset1">
			<data element_type="f16" offset="34653896" shape="1, 1, 1024" size="2048"/>
			<output>
				<port id="0" precision="FP16">
					<dim>1</dim>
					<dim>1</dim>
					<dim>1024</dim>
				</port>
			</output>
		</layer>
		<layer id="288" name="Constant_130938" type="Convert" version="opset1">
			<data destination_type="f32"/>
			<rt_info>
				<attribute name="decompression" version="0"/>
			</rt_info>
			<input>
				<port id="0" precision="FP16">
					<dim>1</dim>
					<dim>1</dim>
					<dim>1024</dim>
				</port>
			</input>
			<output>
				<port id="1" precision="FP32">
					<dim>1</dim>
					<dim>1</dim>
					<dim>1024</dim>
				</port>
			</output>
		</layer>
		<layer id="289" name="Constant_130937_compressed" type="Const" version="opset1">
			<data element_type="f16" offset="34655944" shape="1, 1, 4096" size="8192"/>
			<output>
				<port id="0" precision="FP16">
					<dim>1</dim>
					<dim>1</dim>
					<dim>4096</dim>
				</port>
			</output>
		</layer>
		<layer id="290" name="Constant_130937" type="Convert" version="opset1">
			<data destination_type="f32"/>
			<rt_info>
				<attribute name="decompression" version="0"/>
			</rt_info>
			<input>
				<port id="0" precision="FP16">
					<dim>1</dim>
					<dim>1</dim>
					<dim>4096</dim>
				</port>
			</input>
			<output>
				<port id="1" precision="FP32">
					<dim>1</dim>
					<dim>1</dim>
					<dim>4096</dim>
				</port>
			</output>
		</layer>
		<layer id="291" name="Constant_2644" type="Const" version="opset1">
			<data element_type="i64" offset="13856" shape="1" size="8"/>
			<rt_info>
				<attribute name="fused_names" value="Constant_2644" version="0"/>
			</rt_info>
			<output>
				<port id="0" precision="I64">
					<dim>1</dim>
				</port>
			</output>
		</layer>
		<layer id="292" name="onnx::Mul_728" type="MVN" version="opset6">
			<data eps="9.9999997473787516e-06" eps_mode="INSIDE_SQRT" normalize_variance="true"/>
			<rt_info>
				<attribute name="fused_names" value="onnx::Add_724, onnx::Div_727, onnx::Mul_728, onnx::Pow_721, onnx::ReduceMean_723, onnx::Sqrt_726, onnx::Sub_720" version="0"/>
			</rt_info>
			<input>
				<port id="0" precision="FP32">
					<dim>-1</dim>
					<dim>156</dim>
					<dim>1024</dim>
				</port>
				<port id="1" precision="I64">
					<dim>1</dim>
				</port>
			</input>
			<output>
				<port id="2" names="onnx::Mul_728" precision="FP32">
					<dim>-1</dim>
					<dim>156</dim>
					<dim>1024</dim>
				</port>
			</output>
		</layer>
		<layer id="293" name="Constant_130935_compressed" type="Const" version="opset1">
			<data element_type="f16" offset="34664136" shape="1, 1, 1024" size="2048"/>
			<output>
				<port id="0" precision="FP16">
					<dim>1</dim>
					<dim>1</dim>
					<dim>1024</dim>
				</port>
			</output>
		</layer>
		<layer id="294" name="Constant_130935" type="Convert" version="opset1">
			<data destination_type="f32"/>
			<rt_info>
				<attribute name="decompression" version="0"/>
			</rt_info>
			<input>
				<port id="0" precision="FP16">
					<dim>1</dim>
					<dim>1</dim>
					<dim>1024</dim>
				</port>
			</input>
			<output>
				<port id="1" precision="FP32">
					<dim>1</dim>
					<dim>1</dim>
					<dim>1024</dim>
				</port>
			</output>
		</layer>
		<layer id="295" name="onnx::Add_729" type="Multiply" version="opset1">
			<data auto_broadcast="numpy"/>
			<rt_info>
				<attribute name="fused_names" value="onnx::Add_729" version="0"/>
			</rt_info>
			<input>
				<port id="0" precision="FP32">
					<dim>-1</dim>
					<dim>156</dim>
					<dim>1024</dim>
				</port>
				<port id="1" precision="FP32">
					<dim>1</dim>
					<dim>1</dim>
					<dim>1024</dim>
				</port>
			</input>
			<output>
				<port id="2" names="onnx::Add_729" precision="FP32">
					<dim>-1</dim>
					<dim>156</dim>
					<dim>1024</dim>
				</port>
			</output>
		</layer>
		<layer id="296" name="Constant_130936_compressed" type="Const" version="opset1">
			<data element_type="f16" offset="34666184" shape="1, 1, 1024" size="2048"/>
			<output>
				<port id="0" precision="FP16">
					<dim>1</dim>
					<dim>1</dim>
					<dim>1024</dim>
				</port>
			</output>
		</layer>
		<layer id="297" name="Constant_130936" type="Convert" version="opset1">
			<data destination_type="f32"/>
			<rt_info>
				<attribute name="decompression" version="0"/>
			</rt_info>
			<input>
				<port id="0" precision="FP16">
					<dim>1</dim>
					<dim>1</dim>
					<dim>1024</dim>
				</port>
			</input>
			<output>
				<port id="1" precision="FP32">
					<dim>1</dim>
					<dim>1</dim>
					<dim>1024</dim>
				</port>
			</output>
		</layer>
		<layer id="298" name="onnx::MatMul_730" type="Add" version="opset1">
			<data auto_broadcast="numpy"/>
			<rt_info>
				<attribute name="fused_names" value="onnx::MatMul_730" version="0"/>
			</rt_info>
			<input>
				<port id="0" precision="FP32">
					<dim>-1</dim>
					<dim>156</dim>
					<dim>1024</dim>
				</port>
				<port id="1" precision="FP32">
					<dim>1</dim>
					<dim>1</dim>
					<dim>1024</dim>
				</port>
			</input>
			<output>
				<port id="2" names="onnx::MatMul_730" precision="FP32">
					<dim>-1</dim>
					<dim>156</dim>
					<dim>1024</dim>
				</port>
			</output>
		</layer>
		<layer id="299" name="Constant_129435_compressed" type="Const" version="opset1">
			<data element_type="f16" offset="34668232" shape="4096, 1024" size="8388608"/>
			<output>
				<port id="0" precision="FP16">
					<dim>4096</dim>
					<dim>1024</dim>
				</port>
			</output>
		</layer>
		<layer id="300" name="Constant_129435" type="Convert" version="opset1">
			<data destination_type="f32"/>
			<rt_info>
				<attribute name="decompression" version="0"/>
				<attribute name="fused_names" value="onnx::Add_732, onnx::MatMul_3754" version="0"/>
			</rt_info>
			<input>
				<port id="0" precision="FP16">
					<dim>4096</dim>
					<dim>1024</dim>
				</port>
			</input>
			<output>
				<port id="1" precision="FP32">
					<dim>4096</dim>
					<dim>1024</dim>
				</port>
			</output>
		</layer>
		<layer id="301" name="onnx::Add_732" type="MatMul" version="opset1">
			<data transpose_a="false" transpose_b="true"/>
			<rt_info>
				<attribute name="fused_names" value="onnx::Add_732, onnx::MatMul_3754" version="0"/>
			</rt_info>
			<input>
				<port id="0" precision="FP32">
					<dim>-1</dim>
					<dim>156</dim>
					<dim>1024</dim>
				</port>
				<port id="1" precision="FP32">
					<dim>4096</dim>
					<dim>1024</dim>
				</port>
			</input>
			<output>
				<port id="2" names="onnx::Add_732" precision="FP32">
					<dim>-1</dim>
					<dim>156</dim>
					<dim>4096</dim>
				</port>
			</output>
		</layer>
		<layer id="302" name="onnx::Div_733" type="Add" version="opset1">
			<data auto_broadcast="numpy"/>
			<rt_info>
				<attribute name="fused_names" value="onnx::Div_733" version="0"/>
			</rt_info>
			<input>
				<port id="0" precision="FP32">
					<dim>1</dim>
					<dim>1</dim>
					<dim>4096</dim>
				</port>
				<port id="1" precision="FP32">
					<dim>-1</dim>
					<dim>156</dim>
					<dim>4096</dim>
				</port>
			</input>
			<output>
				<port id="2" names="onnx::Div_733" precision="FP32">
					<dim>-1</dim>
					<dim>156</dim>
					<dim>4096</dim>
				</port>
			</output>
		</layer>
		<layer id="303" name="input.79" type="Gelu" version="opset7">
			<data approximation_mode="ERF"/>
			<rt_info>
				<attribute name="fused_names" value="input.79, onnx::Add_736, onnx::Erf_735, onnx::Mul_738, onnx::Mul_739" version="0"/>
			</rt_info>
			<input>
				<port id="0" precision="FP32">
					<dim>-1</dim>
					<dim>156</dim>
					<dim>4096</dim>
				</port>
			</input>
			<output>
				<port id="1" names="input.79" precision="FP32">
					<dim>-1</dim>
					<dim>156</dim>
					<dim>4096</dim>
				</port>
			</output>
		</layer>
		<layer id="304" name="Constant_129443_compressed" type="Const" version="opset1">
			<data element_type="f16" offset="43056840" shape="1024, 4096" size="8388608"/>
			<output>
				<port id="0" precision="FP16">
					<dim>1024</dim>
					<dim>4096</dim>
				</port>
			</output>
		</layer>
		<layer id="305" name="Constant_129443" type="Convert" version="opset1">
			<data destination_type="f32"/>
			<rt_info>
				<attribute name="decompression" version="0"/>
				<attribute name="fused_names" value="onnx::Add_743, onnx::MatMul_3755" version="0"/>
			</rt_info>
			<input>
				<port id="0" precision="FP16">
					<dim>1024</dim>
					<dim>4096</dim>
				</port>
			</input>
			<output>
				<port id="1" precision="FP32">
					<dim>1024</dim>
					<dim>4096</dim>
				</port>
			</output>
		</layer>
		<layer id="306" name="onnx::Add_743" type="MatMul" version="opset1">
			<data transpose_a="false" transpose_b="true"/>
			<rt_info>
				<attribute name="fused_names" value="onnx::Add_743, onnx::MatMul_3755" version="0"/>
			</rt_info>
			<input>
				<port id="0" precision="FP32">
					<dim>-1</dim>
					<dim>156</dim>
					<dim>4096</dim>
				</port>
				<port id="1" precision="FP32">
					<dim>1024</dim>
					<dim>4096</dim>
				</port>
			</input>
			<output>
				<port id="2" names="onnx::Add_743" precision="FP32">
					<dim>-1</dim>
					<dim>156</dim>
					<dim>1024</dim>
				</port>
			</output>
		</layer>
		<layer id="307" name="input.83" type="Add" version="opset1">
			<data auto_broadcast="numpy"/>
			<rt_info>
				<attribute name="fused_names" value="input.83" version="0"/>
			</rt_info>
			<input>
				<port id="0" precision="FP32">
					<dim>1</dim>
					<dim>1</dim>
					<dim>1024</dim>
				</port>
				<port id="1" precision="FP32">
					<dim>-1</dim>
					<dim>156</dim>
					<dim>1024</dim>
				</port>
			</input>
			<output>
				<port id="2" names="input.83" precision="FP32">
					<dim>-1</dim>
					<dim>156</dim>
					<dim>1024</dim>
				</port>
			</output>
		</layer>
		<layer id="308" name="input.87" type="Add" version="opset1">
			<data auto_broadcast="numpy"/>
			<rt_info>
				<attribute name="fused_names" value="input.87" version="0"/>
			</rt_info>
			<input>
				<port id="0" precision="FP32">
					<dim>-1</dim>
					<dim>156</dim>
					<dim>1024</dim>
				</port>
				<port id="1" precision="FP32">
					<dim>-1</dim>
					<dim>156</dim>
					<dim>1024</dim>
				</port>
			</input>
			<output>
				<port id="2" names="input.87" precision="FP32">
					<dim>-1</dim>
					<dim>156</dim>
					<dim>1024</dim>
				</port>
			</output>
		</layer>
		<layer id="309" name="Constant_130944_compressed" type="Const" version="opset1">
			<data element_type="f16" offset="51445448" shape="1, 1, 1024" size="2048"/>
			<output>
				<port id="0" precision="FP16">
					<dim>1</dim>
					<dim>1</dim>
					<dim>1024</dim>
				</port>
			</output>
		</layer>
		<layer id="310" name="Constant_130944" type="Convert" version="opset1">
			<data destination_type="f32"/>
			<rt_info>
				<attribute name="decompression" version="0"/>
			</rt_info>
			<input>
				<port id="0" precision="FP16">
					<dim>1</dim>
					<dim>1</dim>
					<dim>1024</dim>
				</port>
			</input>
			<output>
				<port id="1" precision="FP32">
					<dim>1</dim>
					<dim>1</dim>
					<dim>1024</dim>
				</port>
			</output>
		</layer>
		<layer id="311" name="Constant_2670" type="Const" version="opset1">
			<data element_type="i64" offset="13856" shape="1" size="8"/>
			<rt_info>
				<attribute name="fused_names" value="Constant_2670" version="0"/>
			</rt_info>
			<output>
				<port id="0" precision="I64">
					<dim>1</dim>
				</port>
			</output>
		</layer>
		<layer id="312" name="onnx::Mul_754" type="MVN" version="opset6">
			<data eps="9.9999997473787516e-06" eps_mode="INSIDE_SQRT" normalize_variance="true"/>
			<rt_info>
				<attribute name="fused_names" value="onnx::Add_750, onnx::Div_753, onnx::Mul_754, onnx::Pow_747, onnx::ReduceMean_749, onnx::Sqrt_752, onnx::Sub_746" version="0"/>
			</rt_info>
			<input>
				<port id="0" precision="FP32">
					<dim>-1</dim>
					<dim>156</dim>
					<dim>1024</dim>
				</port>
				<port id="1" precision="I64">
					<dim>1</dim>
				</port>
			</input>
			<output>
				<port id="2" names="onnx::Mul_754" precision="FP32">
					<dim>-1</dim>
					<dim>156</dim>
					<dim>1024</dim>
				</port>
			</output>
		</layer>
		<layer id="313" name="Constant_130939_compressed" type="Const" version="opset1">
			<data element_type="f16" offset="51447496" shape="1, 1, 1024" size="2048"/>
			<output>
				<port id="0" precision="FP16">
					<dim>1</dim>
					<dim>1</dim>
					<dim>1024</dim>
				</port>
			</output>
		</layer>
		<layer id="314" name="Constant_130939" type="Convert" version="opset1">
			<data destination_type="f32"/>
			<rt_info>
				<attribute name="decompression" version="0"/>
			</rt_info>
			<input>
				<port id="0" precision="FP16">
					<dim>1</dim>
					<dim>1</dim>
					<dim>1024</dim>
				</port>
			</input>
			<output>
				<port id="1" precision="FP32">
					<dim>1</dim>
					<dim>1</dim>
					<dim>1024</dim>
				</port>
			</output>
		</layer>
		<layer id="315" name="onnx::Add_755" type="Multiply" version="opset1">
			<data auto_broadcast="numpy"/>
			<rt_info>
				<attribute name="fused_names" value="onnx::Add_755" version="0"/>
			</rt_info>
			<input>
				<port id="0" precision="FP32">
					<dim>-1</dim>
					<dim>156</dim>
					<dim>1024</dim>
				</port>
				<port id="1" precision="FP32">
					<dim>1</dim>
					<dim>1</dim>
					<dim>1024</dim>
				</port>
			</input>
			<output>
				<port id="2" names="onnx::Add_755" precision="FP32">
					<dim>-1</dim>
					<dim>156</dim>
					<dim>1024</dim>
				</port>
			</output>
		</layer>
		<layer id="316" name="Constant_130940_compressed" type="Const" version="opset1">
			<data element_type="f16" offset="51449544" shape="1, 1, 1024" size="2048"/>
			<output>
				<port id="0" precision="FP16">
					<dim>1</dim>
					<dim>1</dim>
					<dim>1024</dim>
				</port>
			</output>
		</layer>
		<layer id="317" name="Constant_130940" type="Convert" version="opset1">
			<data destination_type="f32"/>
			<rt_info>
				<attribute name="decompression" version="0"/>
			</rt_info>
			<input>
				<port id="0" precision="FP16">
					<dim>1</dim>
					<dim>1</dim>
					<dim>1024</dim>
				</port>
			</input>
			<output>
				<port id="1" precision="FP32">
					<dim>1</dim>
					<dim>1</dim>
					<dim>1024</dim>
				</port>
			</output>
		</layer>
		<layer id="318" name="onnx::Shape_756" type="Add" version="opset1">
			<data auto_broadcast="numpy"/>
			<rt_info>
				<attribute name="fused_names" value="onnx::Shape_756" version="0"/>
			</rt_info>
			<input>
				<port id="0" precision="FP32">
					<dim>-1</dim>
					<dim>156</dim>
					<dim>1024</dim>
				</port>
				<port id="1" precision="FP32">
					<dim>1</dim>
					<dim>1</dim>
					<dim>1024</dim>
				</port>
			</input>
			<output>
				<port id="2" names="onnx::Shape_756" precision="FP32">
					<dim>-1</dim>
					<dim>156</dim>
					<dim>1024</dim>
				</port>
			</output>
		</layer>
		<layer id="319" name="Constant_130594_compressed" type="Const" version="opset1">
			<data element_type="f16" offset="51451592" shape="1024, 1024" size="2097152"/>
			<output>
				<port id="0" precision="FP16">
					<dim>1024</dim>
					<dim>1024</dim>
				</port>
			</output>
		</layer>
		<layer id="320" name="Constant_130594" type="Convert" version="opset1">
			<data destination_type="f32"/>
			<rt_info>
				<attribute name="decompression" version="0"/>
				<attribute name="fused_names" value="onnx::Add_764, onnx::MatMul_3756, onnx::Mul_765, onnx::Mul_766, query_states.3" version="0"/>
			</rt_info>
			<input>
				<port id="0" precision="FP16">
					<dim>1024</dim>
					<dim>1024</dim>
				</port>
			</input>
			<output>
				<port id="1" precision="FP32">
					<dim>1024</dim>
					<dim>1024</dim>
				</port>
			</output>
		</layer>
		<layer id="321" name="Multiply_130492" type="MatMul" version="opset1">
			<data transpose_a="false" transpose_b="true"/>
			<rt_info>
				<attribute name="fused_names" value="onnx::Add_764, onnx::MatMul_3756, onnx::Mul_765, onnx::Mul_766, query_states.3" version="0"/>
			</rt_info>
			<input>
				<port id="0" precision="FP32">
					<dim>-1</dim>
					<dim>156</dim>
					<dim>1024</dim>
				</port>
				<port id="1" precision="FP32">
					<dim>1024</dim>
					<dim>1024</dim>
				</port>
			</input>
			<output>
				<port id="2" precision="FP32">
					<dim>-1</dim>
					<dim>156</dim>
					<dim>1024</dim>
				</port>
			</output>
		</layer>
		<layer id="322" name="Constant_130941_compressed" type="Const" version="opset1">
			<data element_type="f16" offset="53548744" shape="1, 1, 1024" size="2048"/>
			<output>
				<port id="0" precision="FP16">
					<dim>1</dim>
					<dim>1</dim>
					<dim>1024</dim>
				</port>
			</output>
		</layer>
…
		<edge from-layer="2915" from-port="0" to-layer="2916" to-port="1"/>
		<edge from-layer="2916" from-port="2" to-layer="2922" to-port="0"/>
		<edge from-layer="2917" from-port="0" to-layer="2919" to-port="1"/>
		<edge from-layer="2918" from-port="0" to-layer="2919" to-port="2"/>
		<edge from-layer="2919" from-port="3" to-layer="2921" to-port="0"/>
		<edge from-layer="2920" from-port="0" to-layer="2921" to-port="1"/>
		<edge from-layer="2921" from-port="2" to-layer="2922" to-port="1"/>
		<edge from-layer="2922" from-port="2" to-layer="2925" to-port="0"/>
		<edge from-layer="2923" from-port="0" to-layer="2924" to-port="0"/>
		<edge from-layer="2924" from-port="1" to-layer="2925" to-port="1"/>
		<edge from-layer="2925" from-port="2" to-layer="2926" to-port="1"/>
		<edge from-layer="2926" from-port="2" to-layer="2927" to-port="1"/>
		<edge from-layer="2927" from-port="2" to-layer="2933" to-port="0"/>
		<edge from-layer="2927" from-port="2" to-layer="2949" to-port="0"/>
		<edge from-layer="2928" from-port="0" to-layer="2929" to-port="0"/>
		<edge from-layer="2929" from-port="1" to-layer="2948" to-port="0"/>
		<edge from-layer="2930" from-port="0" to-layer="2931" to-port="0"/>
		<edge from-layer="2931" from-port="1" to-layer="2943" to-port="0"/>
		<edge from-layer="2932" from-port="0" to-layer="2933" to-port="1"/>
		<edge from-layer="2933" from-port="2" to-layer="2936" to-port="0"/>
		<edge from-layer="2934" from-port="0" to-layer="2935" to-port="0"/>
		<edge from-layer="2935" from-port="1" to-layer="2936" to-port="1"/>
		<edge from-layer="2936" from-port="2" to-layer="2939" to-port="0"/>
		<edge from-layer="2937" from-port="0" to-layer="2938" to-port="0"/>
		<edge from-layer="2938" from-port="1" to-layer="2939" to-port="1"/>
		<edge from-layer="2939" from-port="2" to-layer="2942" to-port="0"/>
		<edge from-layer="2940" from-port="0" to-layer="2941" to-port="0"/>
		<edge from-layer="2941" from-port="1" to-layer="2942" to-port="1"/>
		<edge from-layer="2942" from-port="2" to-layer="2943" to-port="1"/>
		<edge from-layer="2943" from-port="2" to-layer="2944" to-port="0"/>
		<edge from-layer="2944" from-port="1" to-layer="2947" to-port="0"/>
		<edge from-layer="2945" from-port="0" to-layer="2946" to-port="0"/>
		<edge from-layer="2946" from-port="1" to-layer="2947" to-port="1"/>
		<edge from-layer="2947" from-port="2" to-layer="2948" to-port="1"/>
		<edge from-layer="2948" from-port="2" to-layer="2949" to-port="1"/>
		<edge from-layer="2949" from-port="2" to-layer="2953" to-port="0"/>
		<edge from-layer="2949" from-port="2" to-layer="3066" to-port="0"/>
		<edge from-layer="2950" from-port="0" to-layer="2951" to-port="0"/>
		<edge from-layer="2951" from-port="1" to-layer="3065" to-port="0"/>
		<edge from-layer="2952" from-port="0" to-layer="2953" to-port="1"/>
		<edge from-layer="2953" from-port="2" to-layer="2956" to-port="0"/>
		<edge from-layer="2954" from-port="0" to-layer="2955" to-port="0"/>
		<edge from-layer="2955" from-port="1" to-layer="2956" to-port="1"/>
		<edge from-layer="2956" from-port="2" to-layer="2959" to-port="0"/>
		<edge from-layer="2957" from-port="0" to-layer="2958" to-port="0"/>
		<edge from-layer="2958" from-port="1" to-layer="2959" to-port="1"/>
		<edge from-layer="2959" from-port="2" to-layer="2991" to-port="0"/>
		<edge from-layer="2959" from-port="2" to-layer="2966" to-port="0"/>
		<edge from-layer="2959" from-port="2" to-layer="3027" to-port="0"/>
		<edge from-layer="2959" from-port="2" to-layer="2962" to-port="0"/>
		<edge from-layer="2960" from-port="0" to-layer="2961" to-port="0"/>
		<edge from-layer="2961" from-port="1" to-layer="2962" to-port="1"/>
		<edge from-layer="2962" from-port="2" to-layer="2965" to-port="0"/>
		<edge from-layer="2963" from-port="0" to-layer="2964" to-port="0"/>
		<edge from-layer="2964" from-port="1" to-layer="2965" to-port="1"/>
		<edge from-layer="2965" from-port="2" to-layer="2973" to-port="0"/>
		<edge from-layer="2966" from-port="1" to-layer="3046" to-port="0"/>
		<edge from-layer="2966" from-port="1" to-layer="2994" to-port="0"/>
		<edge from-layer="2966" from-port="1" to-layer="3058" to-port="0"/>
		<edge from-layer="2966" from-port="1" to-layer="2978" to-port="0"/>
		<edge from-layer="2966" from-port="1" to-layer="3050" to-port="0"/>
		<edge from-layer="2966" from-port="1" to-layer="3030" to-port="0"/>
		<edge from-layer="2966" from-port="1" to-layer="2969" to-port="0"/>
		<edge from-layer="2967" from-port="0" to-layer="2969" to-port="1"/>
		<edge from-layer="2968" from-port="0" to-layer="2969" to-port="2"/>
		<edge from-layer="2969" from-port="3" to-layer="2972" to-port="0"/>
		<edge from-layer="2970" from-port="0" to-layer="2972" to-port="1"/>
		<edge from-layer="2971" from-port="0" to-layer="2972" to-port="2"/>
		<edge from-layer="2972" from-port="3" to-layer="2973" to-port="1"/>
		<edge from-layer="2973" from-port="2" to-layer="2975" to-port="0"/>
		<edge from-layer="2974" from-port="0" to-layer="2975" to-port="1"/>
		<edge from-layer="2975" from-port="2" to-layer="2986" to-port="0"/>
		<edge from-layer="2976" from-port="0" to-layer="2978" to-port="1"/>
		<edge from-layer="2977" from-port="0" to-layer="3046" to-port="2"/>
		<edge from-layer="2977" from-port="0" to-layer="3030" to-port="2"/>
		<edge from-layer="2977" from-port="0" to-layer="2994" to-port="2"/>
		<edge from-layer="2977" from-port="0" to-layer="2978" to-port="2"/>
		<edge from-layer="2978" from-port="3" to-layer="2980" to-port="0"/>
		<edge from-layer="2979" from-port="0" to-layer="2980" to-port="1"/>
		<edge from-layer="2980" from-port="2" to-layer="3003" to-port="0"/>
		<edge from-layer="2980" from-port="2" to-layer="3039" to-port="0"/>
		<edge from-layer="2980" from-port="2" to-layer="2982" to-port="0"/>
		<edge from-layer="2981" from-port="0" to-layer="2982" to-port="1"/>
		<edge from-layer="2982" from-port="2" to-layer="2985" to-port="0"/>
		<edge from-layer="2983" from-port="0" to-layer="2985" to-port="1"/>
		<edge from-layer="2984" from-port="0" to-layer="2985" to-port="2"/>
		<edge from-layer="2985" from-port="3" to-layer="2986" to-port="1"/>
		<edge from-layer="2986" from-port="2" to-layer="3010" to-port="0"/>
		<edge from-layer="2987" from-port="0" to-layer="2988" to-port="0"/>
		<edge from-layer="2988" from-port="1" to-layer="2992" to-port="0"/>
		<edge from-layer="2989" from-port="0" to-layer="2990" to-port="0"/>
		<edge from-layer="2990" from-port="1" to-layer="2991" to-port="1"/>
		<edge from-layer="2991" from-port="2" to-layer="2992" to-port="1"/>
		<edge from-layer="2992" from-port="2" to-layer="2999" to-port="0"/>
		<edge from-layer="2993" from-port="0" to-layer="2994" to-port="1"/>
		<edge from-layer="2994" from-port="3" to-layer="2998" to-port="0"/>
		<edge from-layer="2995" from-port="0" to-layer="2998" to-port="1"/>
		<edge from-layer="2996" from-port="0" to-layer="2998" to-port="2"/>
		<edge from-layer="2997" from-port="0" to-layer="2998" to-port="3"/>
		<edge from-layer="2998" from-port="4" to-layer="2999" to-port="1"/>
		<edge from-layer="2999" from-port="2" to-layer="3001" to-port="0"/>
		<edge from-layer="3000" from-port="0" to-layer="3001" to-port="1"/>
		<edge from-layer="3001" from-port="2" to-layer="3007" to-port="0"/>
		<edge from-layer="3002" from-port="0" to-layer="3003" to-port="1"/>
		<edge from-layer="3003" from-port="2" to-layer="3006" to-port="0"/>
		<edge from-layer="3004" from-port="0" to-layer="3006" to-port="1"/>
		<edge from-layer="3005" from-port="0" to-layer="3006" to-port="2"/>
		<edge from-layer="3006" from-port="3" to-layer="3007" to-port="1"/>
		<edge from-layer="3007" from-port="2" to-layer="3009" to-port="0"/>
		<edge from-layer="3008" from-port="0" to-layer="3009" to-port="1"/>
		<edge from-layer="3009" from-port="2" to-layer="3010" to-port="1"/>
		<edge from-layer="3010" from-port="2" to-layer="3011" to-port="0"/>
		<edge from-layer="3010" from-port="2" to-layer="3020" to-port="0"/>
		<edge from-layer="3011" from-port="1" to-layer="3022" to-port="1"/>
		<edge from-layer="3011" from-port="1" to-layer="3015" to-port="0"/>
		<edge from-layer="3012" from-port="0" to-layer="3015" to-port="1"/>
		<edge from-layer="3013" from-port="0" to-layer="3015" to-port="2"/>
		<edge from-layer="3014" from-port="0" to-layer="3015" to-port="3"/>
		<edge from-layer="3015" from-port="4" to-layer="3017" to-port="0"/>
		<edge from-layer="3016" from-port="0" to-layer="3017" to-port="1"/>
		<edge from-layer="3017" from-port="2" to-layer="3019" to-port="0"/>
		<edge from-layer="3018" from-port="0" to-layer="3019" to-port="1"/>
		<edge from-layer="3019" from-port="2" to-layer="3020" to-port="1"/>
		<edge from-layer="3020" from-port="2" to-layer="3021" to-port="0"/>
		<edge from-layer="3021" from-port="1" to-layer="3022" to-port="0"/>
		<edge from-layer="3022" from-port="2" to-layer="3044" to-port="0"/>
		<edge from-layer="3023" from-port="0" to-layer="3024" to-port="0"/>
		<edge from-layer="3024" from-port="1" to-layer="3028" to-port="0"/>
		<edge from-layer="3025" from-port="0" to-layer="3026" to-port="0"/>
		<edge from-layer="3026" from-port="1" to-layer="3027" to-port="1"/>
		<edge from-layer="3027" from-port="2" to-layer="3028" to-port="1"/>
		<edge from-layer="3028" from-port="2" to-layer="3035" to-port="0"/>
		<edge from-layer="3029" from-port="0" to-layer="3030" to-port="1"/>
		<edge from-layer="3030" from-port="3" to-layer="3034" to-port="0"/>
		<edge from-layer="3031" from-port="0" to-layer="3034" to-port="1"/>
		<edge from-layer="3032" from-port="0" to-layer="3034" to-port="2"/>
		<edge from-layer="3033" from-port="0" to-layer="3034" to-port="3"/>
		<edge from-layer="3034" from-port="4" to-layer="3035" to-port="1"/>
		<edge from-layer="3035" from-port="2" to-layer="3037" to-port="0"/>
		<edge from-layer="3036" from-port="0" to-layer="3037" to-port="1"/>
		<edge from-layer="3037" from-port="2" to-layer="3043" to-port="0"/>
		<edge from-layer="3038" from-port="0" to-layer="3039" to-port="1"/>
		<edge from-layer="3039" from-port="2" to-layer="3042" to-port="0"/>
		<edge from-layer="3040" from-port="0" to-layer="3042" to-port="1"/>
		<edge from-layer="3041" from-port="0" to-layer="3042" to-port="2"/>
		<edge from-layer="3042" from-port="3" to-layer="3043" to-port="1"/>
		<edge from-layer="3043" from-port="2" to-layer="3044" to-port="1"/>
		<edge from-layer="3044" from-port="2" to-layer="3053" to-port="0"/>
		<edge from-layer="3045" from-port="0" to-layer="3046" to-port="1"/>
		<edge from-layer="3046" from-port="3" to-layer="3052" to-port="0"/>
		<edge from-layer="3047" from-port="0" to-layer="3052" to-port="1"/>
		<edge from-layer="3048" from-port="0" to-layer="3050" to-port="1"/>
		<edge from-layer="3049" from-port="0" to-layer="3050" to-port="2"/>
		<edge from-layer="3050" from-port="3" to-layer="3052" to-port="2"/>
		<edge from-layer="3051" from-port="0" to-layer="3052" to-port="3"/>
		<edge from-layer="3052" from-port="4" to-layer="3053" to-port="1"/>
		<edge from-layer="3053" from-port="2" to-layer="3055" to-port="0"/>
		<edge from-layer="3054" from-port="0" to-layer="3055" to-port="1"/>
		<edge from-layer="3055" from-port="2" to-layer="3061" to-port="0"/>
		<edge from-layer="3056" from-port="0" to-layer="3058" to-port="1"/>
		<edge from-layer="3057" from-port="0" to-layer="3058" to-port="2"/>
		<edge from-layer="3058" from-port="3" to-layer="3060" to-port="0"/>
		<edge from-layer="3059" from-port="0" to-layer="3060" to-port="1"/>
		<edge from-layer="3060" from-port="2" to-layer="3061" to-port="1"/>
		<edge from-layer="3061" from-port="2" to-layer="3064" to-port="0"/>
		<edge from-layer="3062" from-port="0" to-layer="3063" to-port="0"/>
		<edge from-layer="3063" from-port="1" to-layer="3064" to-port="1"/>
		<edge from-layer="3064" from-port="2" to-layer="3065" to-port="1"/>
		<edge from-layer="3065" from-port="2" to-layer="3066" to-port="1"/>
		<edge from-layer="3066" from-port="2" to-layer="3072" to-port="0"/>
		<edge from-layer="3066" from-port="2" to-layer="3088" to-port="0"/>
		<edge from-layer="3067" from-port="0" to-layer="3068" to-port="0"/>
		<edge from-layer="3068" from-port="1" to-layer="3087" to-port="0"/>
		<edge from-layer="3069" from-port="0" to-layer="3070" to-port="0"/>
		<edge from-layer="3070" from-port="1" to-layer="3082" to-port="0"/>
		<edge from-layer="3071" from-port="0" to-layer="3072" to-port="1"/>
		<edge from-layer="3072" from-port="2" to-layer="3075" to-port="0"/>
		<edge from-layer="3073" from-port="0" to-layer="3074" to-port="0"/>
		<edge from-layer="3074" from-port="1" to-layer="3075" to-port="1"/>
		<edge from-layer="3075" from-port="2" to-layer="3078" to-port="0"/>
		<edge from-layer="3076" from-port="0" to-layer="3077" to-port="0"/>
		<edge from-layer="3077" from-port="1" to-layer="3078" to-port="1"/>
		<edge from-layer="3078" from-port="2" to-layer="3081" to-port="0"/>
		<edge from-layer="3079" from-port="0" to-layer="3080" to-port="0"/>
		<edge from-layer="3080" from-port="1" to-layer="3081" to-port="1"/>
		<edge from-layer="3081" from-port="2" to-layer="3082" to-port="1"/>
		<edge from-layer="3082" from-port="2" to-layer="3083" to-port="0"/>
		<edge from-layer="3083" from-port="1" to-layer="3086" to-port="0"/>
		<edge from-layer="3084" from-port="0" to-layer="3085" to-port="0"/>
		<edge from-layer="3085" from-port="1" to-layer="3086" to-port="1"/>
		<edge from-layer="3086" from-port="2" to-layer="3087" to-port="1"/>
		<edge from-layer="3087" from-port="2" to-layer="3088" to-port="1"/>
		<edge from-layer="3088" from-port="2" to-layer="3092" to-port="0"/>
		<edge from-layer="3088" from-port="2" to-layer="3205" to-port="0"/>
		<edge from-layer="3089" from-port="0" to-layer="3090" to-port="0"/>
		<edge from-layer="3090" from-port="1" to-layer="3204" to-port="0"/>
		<edge from-layer="3091" from-port="0" to-layer="3092" to-port="1"/>
		<edge from-layer="3092" from-port="2" to-layer="3095" to-port="0"/>
		<edge from-layer="3093" from-port="0" to-layer="3094" to-port="0"/>
		<edge from-layer="3094" from-port="1" to-layer="3095" to-port="1"/>
		<edge from-layer="3095" from-port="2" to-layer="3098" to-port="0"/>
		<edge from-layer="3096" from-port="0" to-layer="3097" to-port="0"/>
		<edge from-layer="3097" from-port="1" to-layer="3098" to-port="1"/>
		<edge from-layer="3098" from-port="2" to-layer="3101" to-port="0"/>
		<edge from-layer="3098" from-port="2" to-layer="3166" to-port="0"/>
		<edge from-layer="3098" from-port="2" to-layer="3105" to-port="0"/>
		<edge from-layer="3098" from-port="2" to-layer="3130" to-port="0"/>
		<edge from-layer="3099" from-port="0" to-layer="3100" to-port="0"/>
		<edge from-layer="3100" from-port="1" to-layer="3101" to-port="1"/>
		<edge from-layer="3101" from-port="2" to-layer="3104" to-port="0"/>
		<edge from-layer="3102" from-port="0" to-layer="3103" to-port="0"/>
		<edge from-layer="3103" from-port="1" to-layer="3104" to-port="1"/>
		<edge from-layer="3104" from-port="2" to-layer="3112" to-port="0"/>
		<edge from-layer="3105" from-port="1" to-layer="3169" to-port="0"/>
		<edge from-layer="3105" from-port="1" to-layer="3185" to-port="0"/>
		<edge from-layer="3105" from-port="1" to-layer="3189" to-port="0"/>
		<edge from-layer="3105" from-port="1" to-layer="3197" to-port="0"/>
		<edge from-layer="3105" from-port="1" to-layer="3117" to-port="0"/>
		<edge from-layer="3105" from-port="1" to-layer="3133" to-port="0"/>
		<edge from-layer="3105" from-port="1" to-layer="3108" to-port="0"/>
		<edge from-layer="3106" from-port="0" to-layer="3108" to-port="1"/>
		<edge from-layer="3107" from-port="0" to-layer="3108" to-port="2"/>
		<edge from-layer="3108" from-port="3" to-layer="3111" to-port="0"/>
		<edge from-layer="3109" from-port="0" to-layer="3111" to-port="1"/>
		<edge from-layer="3110" from-port="0" to-layer="3111" to-port="2"/>
		<edge from-layer="3111" from-port="3" to-layer="3112" to-port="1"/>
		<edge from-layer="3112" from-port="2" to-layer="3114" to-port="0"/>
		<edge from-layer="3113" from-port="0" to-layer="3114" to-port="1"/>
		<edge from-layer="3114" from-port="2" to-layer="3125" to-port="0"/>
		<edge from-layer="3115" from-port="0" to-layer="3117" to-port="1"/>
		<edge from-layer="3116" from-port="0" to-layer="3117" to-port="2"/>
		<edge from-layer="3116" from-port="0" to-layer="3185" to-port="2"/>
		<edge from-layer="3116" from-port="0" to-layer="3133" to-port="2"/>
		<edge from-layer="3116" from-port="0" to-layer="3169" to-port="2"/>
		<edge from-layer="3117" from-port="3" to-layer="3119" to-port="0"/>
		<edge from-layer="3118" from-port="0" to-layer="3119" to-port="1"/>
		<edge from-layer="3119" from-port="2" to-layer="3178" to-port="0"/>
		<edge from-layer="3119" from-port="2" to-layer="3142" to-port="0"/>
		<edge from-layer="3119" from-port="2" to-layer="3121" to-port="0"/>
		<edge from-layer="3120" from-port="0" to-layer="3121" to-port="1"/>
		<edge from-layer="3121" from-port="2" to-layer="3124" to-port="0"/>
		<edge from-layer="3122" from-port="0" to-layer="3124" to-port="1"/>
		<edge from-layer="3123" from-port="0" to-layer="3124" to-port="2"/>
		<edge from-layer="3124" from-port="3" to-layer="3125" to-port="1"/>
		<edge from-layer="3125" from-port="2" to-layer="3149" to-port="0"/>
		<edge from-layer="3126" from-port="0" to-layer="3127" to-port="0"/>
		<edge from-layer="3127" from-port="1" to-layer="3131" to-port="0"/>
		<edge from-layer="3128" from-port="0" to-layer="3129" to-port="0"/>
		<edge from-layer="3129" from-port="1" to-layer="3130" to-port="1"/>
		<edge from-layer="3130" from-port="2" to-layer="3131" to-port="1"/>
		<edge from-layer="3131" from-port="2" to-layer="3138" to-port="0"/>
		<edge from-layer="3132" from-port="0" to-layer="3133" to-port="1"/>
		<edge from-layer="3133" from-port="3" to-layer="3137" to-port="0"/>
		<edge from-layer="3134" from-port="0" to-layer="3137" to-port="1"/>
		<edge from-layer="3135" from-port="0" to-layer="3137" to-port="2"/>
		<edge from-layer="3136" from-port="0" to-layer="3137" to-port="3"/>
		<edge from-layer="3137" from-port="4" to-layer="3138" to-port="1"/>
		<edge from-layer="3138" from-port="2" to-layer="3140" to-port="0"/>
		<edge from-layer="3139" from-port="0" to-layer="3140" to-port="1"/>
		<edge from-layer="3140" from-port="2" to-layer="3146" to-port="0"/>
		<edge from-layer="3141" from-port="0" to-layer="3142" to-port="1"/>
		<edge from-layer="3142" from-port="2" to-layer="3145" to-port="0"/>
		<edge from-layer="3143" from-port="0" to-layer="3145" to-port="1"/>
		<edge from-layer="3144" from-port="0" to-layer="3145" to-port="2"/>
		<edge from-layer="3145" from-port="3" to-layer="3146" to-port="1"/>
		<edge from-layer="3146" from-port="2" to-layer="3148" to-port="0"/>
		<edge from-layer="3147" from-port="0" to-layer="3148" to-port="1"/>
		<edge from-layer="3148" from-port="2" to-layer="3149" to-port="1"/>
		<edge from-layer="3149" from-port="2" to-layer="3159" to-port="0"/>
		<edge from-layer="3149" from-port="2" to-layer="3150" to-port="0"/>
		<edge from-layer="3150" from-port="1" to-layer="3161" to-port="1"/>
		<edge from-layer="3150" from-port="1" to-layer="3154" to-port="0"/>
		<edge from-layer="3151" from-port="0" to-layer="3154" to-port="1"/>
		<edge from-layer="3152" from-port="0" to-layer="3154" to-port="2"/>
		<edge from-layer="3153" from-port="0" to-layer="3154" to-port="3"/>
		<edge from-layer="3154" from-port="4" to-layer="3156" to-port="0"/>
		<edge from-layer="3155" from-port="0" to-layer="3156" to-port="1"/>
		<edge from-layer="3156" from-port="2" to-layer="3158" to-port="0"/>
		<edge from-layer="3157" from-port="0" to-layer="3158" to-port="1"/>
		<edge from-layer="3158" from-port="2" to-layer="3159" to-port="1"/>
		<edge from-layer="3159" from-port="2" to-layer="3160" to-port="0"/>
		<edge from-layer="3160" from-port="1" to-layer="3161" to-port="0"/>
		<edge from-layer="3161" from-port="2" to-layer="3183" to-port="0"/>
		<edge from-layer="3162" from-port="0" to-layer="3163" to-port="0"/>
		<edge from-layer="3163" from-port="1" to-layer="3167" to-port="0"/>
		<edge from-layer="3164" from-port="0" to-layer="3165" to-port="0"/>
		<edge from-layer="3165" from-port="1" to-layer="3166" to-port="1"/>
		<edge from-layer="3166" from-port="2" to-layer="3167" to-port="1"/>
		<edge from-layer="3167" from-port="2" to-layer="3174" to-port="0"/>
		<edge from-layer="3168" from-port="0" to-layer="3169" to-port="1"/>
		<edge from-layer="3169" from-port="3" to-layer="3173" to-port="0"/>
		<edge from-layer="3170" from-port="0" to-layer="3173" to-port="1"/>
		<edge from-layer="3171" from-port="0" to-layer="3173" to-port="2"/>
		<edge from-layer="3172" from-port="0" to-layer="3173" to-port="3"/>
		<edge from-layer="3173" from-port="4" to-layer="3174" to-port="1"/>
		<edge from-layer="3174" from-port="2" to-layer="3176" to-port="0"/>
		<edge from-layer="3175" from-port="0" to-layer="3176" to-port="1"/>
		<edge from-layer="3176" from-port="2" to-layer="3182" to-port="0"/>
		<edge from-layer="3177" from-port="0" to-layer="3178" to-port="1"/>
		<edge from-layer="3178" from-port="2" to-layer="3181" to-port="0"/>
		<edge from-layer="3179" from-port="0" to-layer="3181" to-port="1"/>
		<edge from-layer="3180" from-port="0" to-layer="3181" to-port="2"/>
		<edge from-layer="3181" from-port="3" to-layer="3182" to-port="1"/>
		<edge from-layer="3182" from-port="2" to-layer="3183" to-port="1"/>
		<edge from-layer="3183" from-port="2" to-layer="3192" to-port="0"/>
		<edge from-layer="3184" from-port="0" to-layer="3185" to-port="1"/>
		<edge from-layer="3185" from-port="3" to-layer="3191" to-port="0"/>
		<edge from-layer="3186" from-port="0" to-layer="3191" to-port="1"/>
		<edge from-layer="3187" from-port="0" to-layer="3189" to-port="1"/>
		<edge from-layer="3188" from-port="0" to-layer="3189" to-port="2"/>
		<edge from-layer="3189" from-port="3" to-layer="3191" to-port="2"/>
		<edge from-layer="3190" from-port="0" to-layer="3191" to-port="3"/>
		<edge from-layer="3191" from-port="4" to-layer="3192" to-port="1"/>
		<edge from-layer="3192" from-port="2" to-layer="3194" to-port="0"/>
		<edge from-layer="3193" from-port="0" to-layer="3194" to-port="1"/>
		<edge from-layer="3194" from-port="2" to-layer="3200" to-port="0"/>
		<edge from-layer="3195" from-port="0" to-layer="3197" to-port="1"/>
		<edge from-layer="3196" from-port="0" to-layer="3197" to-port="2"/>
		<edge from-layer="3197" from-port="3" to-layer="3199" to-port="0"/>
		<edge from-layer="3198" from-port="0" to-layer="3199" to-port="1"/>
		<edge from-layer="3199" from-port="2" to-layer="3200" to-port="1"/>
		<edge from-layer="3200" from-port="2" to-layer="3203" to-port="0"/>
		<edge from-layer="3201" from-port="0" to-layer="3202" to-port="0"/>
		<edge from-layer="3202" from-port="1" to-layer="3203" to-port="1"/>
		<edge from-layer="3203" from-port="2" to-layer="3204" to-port="1"/>
		<edge from-layer="3204" from-port="2" to-layer="3205" to-port="1"/>
		<edge from-layer="3205" from-port="2" to-layer="3211" to-port="0"/>
		<edge from-layer="3205" from-port="2" to-layer="3227" to-port="0"/>
		<edge from-layer="3206" from-port="0" to-layer="3207" to-port="0"/>
		<edge from-layer="3207" from-port="1" to-layer="3226" to-port="0"/>
		<edge from-layer="3208" from-port="0" to-layer="3209" to-port="0"/>
		<edge from-layer="3209" from-port="1" to-layer="3221" to-port="0"/>
		<edge from-layer="3210" from-port="0" to-layer="3211" to-port="1"/>
		<edge from-layer="3211" from-port="2" to-layer="3214" to-port="0"/>
		<edge from-layer="3212" from-port="0" to-layer="3213" to-port="0"/>
		<edge from-layer="3213" from-port="1" to-layer="3214" to-port="1"/>
		<edge from-layer="3214" from-port="2" to-layer="3217" to-port="0"/>
		<edge from-layer="3215" from-port="0" to-layer="3216" to-port="0"/>
		<edge from-layer="3216" from-port="1" to-layer="3217" to-port="1"/>
		<edge from-layer="3217" from-port="2" to-layer="3220" to-port="0"/>
		<edge from-layer="3218" from-port="0" to-layer="3219" to-port="0"/>
		<edge from-layer="3219" from-port="1" to-layer="3220" to-port="1"/>
		<edge from-layer="3220" from-port="2" to-layer="3221" to-port="1"/>
		<edge from-layer="3221" from-port="2" to-layer="3222" to-port="0"/>
		<edge from-layer="3222" from-port="1" to-layer="3225" to-port="0"/>
		<edge from-layer="3223" from-port="0" to-layer="3224" to-port="0"/>
		<edge from-layer="3224" from-port="1" to-layer="3225" to-port="1"/>
		<edge from-layer="3225" from-port="2" to-layer="3226" to-port="1"/>
		<edge from-layer="3226" from-port="2" to-layer="3227" to-port="1"/>
		<edge from-layer="3227" from-port="2" to-layer="3231" to-port="0"/>
		<edge from-layer="3227" from-port="2" to-layer="3344" to-port="0"/>
		<edge from-layer="3228" from-port="0" to-layer="3229" to-port="0"/>
		<edge from-layer="3229" from-port="1" to-layer="3343" to-port="0"/>
		<edge from-layer="3230" from-port="0" to-layer="3231" to-port="1"/>
		<edge from-layer="3231" from-port="2" to-layer="3234" to-port="0"/>
		<edge from-layer="3232" from-port="0" to-layer="3233" to-port="0"/>
		<edge from-layer="3233" from-port="1" to-layer="3234" to-port="1"/>
		<edge from-layer="3234" from-port="2" to-layer="3237" to-port="0"/>
		<edge from-layer="3235" from-port="0" to-layer="3236" to-port="0"/>
		<edge from-layer="3236" from-port="1" to-layer="3237" to-port="1"/>
		<edge from-layer="3237" from-port="2" to-layer="3240" to-port="0"/>
		<edge from-layer="3237" from-port="2" to-layer="3305" to-port="0"/>
		<edge from-layer="3237" from-port="2" to-layer="3244" to-port="0"/>
		<edge from-layer="3237" from-port="2" to-layer="3269" to-port="0"/>
		<edge from-layer="3238" from-port="0" to-layer="3239" to-port="0"/>
		<edge from-layer="3239" from-port="1" to-layer="3240" to-port="1"/>
		<edge from-layer="3240" from-port="2" to-layer="3243" to-port="0"/>
		<edge from-layer="3241" from-port="0" to-layer="3242" to-port="0"/>
		<edge from-layer="3242" from-port="1" to-layer="3243" to-port="1"/>
		<edge from-layer="3243" from-port="2" to-layer="3251" to-port="0"/>
		<edge from-layer="3244" from-port="1" to-layer="3308" to-port="0"/>
		<edge from-layer="3244" from-port="1" to-layer="3247" to-port="0"/>
		<edge from-layer="3244" from-port="1" to-layer="3336" to-port="0"/>
		<edge from-layer="3244" from-port="1" to-layer="3328" to-port="0"/>
		<edge from-layer="3244" from-port="1" to-layer="3324" to-port="0"/>
		<edge from-layer="3244" from-port="1" to-layer="3272" to-port="0"/>
		<edge from-layer="3244" from-port="1" to-layer="3256" to-port="0"/>
		<edge from-layer="3245" from-port="0" to-layer="3247" to-port="1"/>
		<edge from-layer="3246" from-port="0" to-layer="3247" to-port="2"/>
		<edge from-layer="3247" from-port="3" to-layer="3250" to-port="0"/>
		<edge from-layer="3248" from-port="0" to-layer="3250" to-port="1"/>
		<edge from-layer="3249" from-port="0" to-layer="3250" to-port="2"/>
		<edge from-layer="3250" from-port="3" to-layer="3251" to-port="1"/>
		<edge from-layer="3251" from-port="2" to-layer="3253" to-port="0"/>
		<edge from-layer="3252" from-port="0" to-layer="3253" to-port="1"/>
		<edge from-layer="3253" from-port="2" to-layer="3264" to-port="0"/>
		<edge from-layer="3254" from-port="0" to-layer="3256" to-port="1"/>
		<edge from-layer="3255" from-port="0" to-layer="3272" to-port="2"/>
		<edge from-layer="3255" from-port="0" to-layer="3308" to-port="2"/>
		<edge from-layer="3255" from-port="0" to-layer="3324" to-port="2"/>
		<edge from-layer="3255" from-port="0" to-layer="3256" to-port="2"/>
		<edge from-layer="3256" from-port="3" to-layer="3258" to-port="0"/>
		<edge from-layer="3257" from-port="0" to-layer="3258" to-port="1"/>
		<edge from-layer="3258" from-port="2" to-layer="3317" to-port="0"/>
		<edge from-layer="3258" from-port="2" to-layer="3281" to-port="0"/>
		<edge from-layer="3258" from-port="2" to-layer="3260" to-port="0"/>
		<edge from-layer="3259" from-port="0" to-layer="3260" to-port="1"/>
		<edge from-layer="3260" from-port="2" to-layer="3263" to-port="0"/>
		<edge from-layer="3261" from-port="0" to-layer="3263" to-port="1"/>
		<edge from-layer="3262" from-port="0" to-layer="3263" to-port="2"/>
		<edge from-layer="3263" from-port="3" to-layer="3264" to-port="1"/>
		<edge from-layer="3264" from-port="2" to-layer="3288" to-port="0"/>
		<edge from-layer="3265" from-port="0" to-layer="3266" to-port="0"/>
		<edge from-layer="3266" from-port="1" to-layer="3270" to-port="0"/>
		<edge from-layer="3267" from-port="0" to-layer="3268" to-port="0"/>
		<edge from-layer="3268" from-port="1" to-layer="3269" to-port="1"/>
		<edge from-layer="3269" from-port="2" to-layer="3270" to-port="1"/>
		<edge from-layer="3270" from-port="2" to-layer="3277" to-port="0"/>
		<edge from-layer="3271" from-port="0" to-layer="3272" to-port="1"/>
		<edge from-layer="3272" from-port="3" to-layer="3276" to-port="0"/>
		<edge from-layer="3273" from-port="0" to-layer="3276" to-port="1"/>
		<edge from-layer="3274" from-port="0" to-layer="3276" to-port="2"/>
		<edge from-layer="3275" from-port="0" to-layer="3276" to-port="3"/>
		<edge from-layer="3276" from-port="4" to-layer="3277" to-port="1"/>
		<edge from-layer="3277" from-port="2" to-layer="3279" to-port="0"/>
		<edge from-layer="3278" from-port="0" to-layer="3279" to-port="1"/>
		<edge from-layer="3279" from-port="2" to-layer="3285" to-port="0"/>
		<edge from-layer="3280" from-port="0" to-layer="3281" to-port="1"/>
		<edge from-layer="3281" from-port="2" to-layer="3284" to-port="0"/>
		<edge from-layer="3282" from-port="0" to-layer="3284" to-port="1"/>
		<edge from-layer="3283" from-port="0" to-layer="3284" to-port="2"/>
		<edge from-layer="3284" from-port="3" to-layer="3285" to-port="1"/>
		<edge from-layer="3285" from-port="2" to-layer="3287" to-port="0"/>
		<edge from-layer="3286" from-port="0" to-layer="3287" to-port="1"/>
		<edge from-layer="3287" from-port="2" to-layer="3288" to-port="1"/>
		<edge from-layer="3288" from-port="2" to-layer="3289" to-port="0"/>
		<edge from-layer="3288" from-port="2" to-layer="3298" to-port="0"/>
		<edge from-layer="3289" from-port="1" to-layer="3300" to-port="1"/>
		<edge from-layer="3289" from-port="1" to-layer="3293" to-port="0"/>
		<edge from-layer="3290" from-port="0" to-layer="3293" to-port="1"/>
		<edge from-layer="3291" from-port="0" to-layer="3293" to-port="2"/>
		<edge from-layer="3292" from-port="0" to-layer="3293" to-port="3"/>
		<edge from-layer="3293" from-port="4" to-layer="3295" to-port="0"/>
		<edge from-layer="3294" from-port="0" to-layer="3295" to-port="1"/>
		<edge from-layer="3295" from-port="2" to-layer="3297" to-port="0"/>
		<edge from-layer="3296" from-port="0" to-layer="3297" to-port="1"/>
		<edge from-layer="3297" from-port="2" to-layer="3298" to-port="1"/>
		<edge from-layer="3298" from-port="2" to-layer="3299" to-port="0"/>
		<edge from-layer="3299" from-port="1" to-layer="3300" to-port="0"/>
		<edge from-layer="3300" from-port="2" to-layer="3322" to-port="0"/>
		<edge from-layer="3301" from-port="0" to-layer="3302" to-port="0"/>
		<edge from-layer="3302" from-port="1" to-layer="3306" to-port="0"/>
		<edge from-layer="3303" from-port="0" to-layer="3304" to-port="0"/>
		<edge from-layer="3304" from-port="1" to-layer="3305" to-port="1"/>
		<edge from-layer="3305" from-port="2" to-layer="3306" to-port="1"/>
		<edge from-layer="3306" from-port="2" to-layer="3313" to-port="0"/>
		<edge from-layer="3307" from-port="0" to-layer="3308" to-port="1"/>
		<edge from-layer="3308" from-port="3" to-layer="3312" to-port="0"/>
		<edge from-layer="3309" from-port="0" to-layer="3312" to-port="1"/>
		<edge from-layer="3310" from-port="0" to-layer="3312" to-port="2"/>
		<edge from-layer="3311" from-port="0" to-layer="3312" to-port="3"/>
		<edge from-layer="3312" from-port="4" to-layer="3313" to-port="1"/>
		<edge from-layer="3313" from-port="2" to-layer="3315" to-port="0"/>
		<edge from-layer="3314" from-port="0" to-layer="3315" to-port="1"/>
		<edge from-layer="3315" from-port="2" to-layer="3321" to-port="0"/>
		<edge from-layer="3316" from-port="0" to-layer="3317" to-port="1"/>
		<edge from-layer="3317" from-port="2" to-layer="3320" to-port="0"/>
		<edge from-layer="3318" from-port="0" to-layer="3320" to-port="1"/>
		<edge from-layer="3319" from-port="0" to-layer="3320" to-port="2"/>
		<edge from-layer="3320" from-port="3" to-layer="3321" to-port="1"/>
		<edge from-layer="3321" from-port="2" to-layer="3322" to-port="1"/>
		<edge from-layer="3322" from-port="2" to-layer="3331" to-port="0"/>
		<edge from-layer="3323" from-port="0" to-layer="3324" to-port="1"/>
		<edge from-layer="3324" from-port="3" to-layer="3330" to-port="0"/>
		<edge from-layer="3325" from-port="0" to-layer="3330" to-port="1"/>
		<edge from-layer="3326" from-port="0" to-layer="3328" to-port="1"/>
		<edge from-layer="3327" from-port="0" to-layer="3328" to-port="2"/>
		<edge from-layer="3328" from-port="3" to-layer="3330" to-port="2"/>
		<edge from-layer="3329" from-port="0" to-layer="3330" to-port="3"/>
		<edge from-layer="3330" from-port="4" to-layer="3331" to-port="1"/>
		<edge from-layer="3331" from-port="2" to-layer="3333" to-port="0"/>
		<edge from-layer="3332" from-port="0" to-layer="3333" to-port="1"/>
		<edge from-layer="3333" from-port="2" to-layer="3339" to-port="0"/>
		<edge from-layer="3334" from-port="0" to-layer="3336" to-port="1"/>
		<edge from-layer="3335" from-port="0" to-layer="3336" to-port="2"/>
		<edge from-layer="3336" from-port="3" to-layer="3338" to-port="0"/>
		<edge from-layer="3337" from-port="0" to-layer="3338" to-port="1"/>
		<edge from-layer="3338" from-port="2" to-layer="3339" to-port="1"/>
		<edge from-layer="3339" from-port="2" to-layer="3342" to-port="0"/>
		<edge from-layer="3340" from-port="0" to-layer="3341" to-port="0"/>
		<edge from-layer="3341" from-port="1" to-layer="3342" to-port="1"/>
		<edge from-layer="3342" from-port="2" to-layer="3343" to-port="1"/>
		<edge from-layer="3343" from-port="2" to-layer="3344" to-port="1"/>
		<edge from-layer="3344" from-port="2" to-layer="3350" to-port="0"/>
		<edge from-layer="3344" from-port="2" to-layer="3366" to-port="0"/>
		<edge from-layer="3345" from-port="0" to-layer="3346" to-port="0"/>
		<edge from-layer="3346" from-port="1" to-layer="3365" to-port="0"/>
		<edge from-layer="3347" from-port="0" to-layer="3348" to-port="0"/>
		<edge from-layer="3348" from-port="1" to-layer="3360" to-port="0"/>
		<edge from-layer="3349" from-port="0" to-layer="3350" to-port="1"/>
		<edge from-layer="3350" from-port="2" to-layer="3353" to-port="0"/>
		<edge from-layer="3351" from-port="0" to-layer="3352" to-port="0"/>
		<edge from-layer="3352" from-port="1" to-layer="3353" to-port="1"/>
		<edge from-layer="3353" from-port="2" to-layer="3356" to-port="0"/>
		<edge from-layer="3354" from-port="0" to-layer="3355" to-port="0"/>
		<edge from-layer="3355" from-port="1" to-layer="3356" to-port="1"/>
		<edge from-layer="3356" from-port="2" to-layer="3359" to-port="0"/>
		<edge from-layer="3357" from-port="0" to-layer="3358" to-port="0"/>
		<edge from-layer="3358" from-port="1" to-layer="3359" to-port="1"/>
		<edge from-layer="3359" from-port="2" to-layer="3360" to-port="1"/>
		<edge from-layer="3360" from-port="2" to-layer="3361" to-port="0"/>
		<edge from-layer="3361" from-port="1" to-layer="3364" to-port="0"/>
		<edge from-layer="3362" from-port="0" to-layer="3363" to-port="0"/>
		<edge from-layer="3363" from-port="1" to-layer="3364" to-port="1"/>
		<edge from-layer="3364" from-port="2" to-layer="3365" to-port="1"/>
		<edge from-layer="3365" from-port="2" to-layer="3366" to-port="1"/>
		<edge from-layer="3366" from-port="2" to-layer="3370" to-port="0"/>
		<edge from-layer="3366" from-port="2" to-layer="3483" to-port="0"/>
		<edge from-layer="3367" from-port="0" to-layer="3368" to-port="0"/>
		<edge from-layer="3368" from-port="1" to-layer="3482" to-port="0"/>
		<edge from-layer="3369" from-port="0" to-layer="3370" to-port="1"/>
		<edge from-layer="3370" from-port="2" to-layer="3373" to-port="0"/>
		<edge from-layer="3371" from-port="0" to-layer="3372" to-port="0"/>
		<edge from-layer="3372" from-port="1" to-layer="3373" to-port="1"/>
		<edge from-layer="3373" from-port="2" to-layer="3376" to-port="0"/>
		<edge from-layer="3374" from-port="0" to-layer="3375" to-port="0"/>
		<edge from-layer="3375" from-port="1" to-layer="3376" to-port="1"/>
		<edge from-layer="3376" from-port="2" to-layer="3379" to-port="0"/>
		<edge from-layer="3376" from-port="2" to-layer="3444" to-port="0"/>
		<edge from-layer="3376" from-port="2" to-layer="3408" to-port="0"/>
		<edge from-layer="3376" from-port="2" to-layer="3383" to-port="0"/>
		<edge from-layer="3377" from-port="0" to-layer="3378" to-port="0"/>
		<edge from-layer="3378" from-port="1" to-layer="3379" to-port="1"/>
		<edge from-layer="3379" from-port="2" to-layer="3382" to-port="0"/>
		<edge from-layer="3380" from-port="0" to-layer="3381" to-port="0"/>
		<edge from-layer="3381" from-port="1" to-layer="3382" to-port="1"/>
		<edge from-layer="3382" from-port="2" to-layer="3390" to-port="0"/>
		<edge from-layer="3383" from-port="1" to-layer="3386" to-port="0"/>
		<edge from-layer="3383" from-port="1" to-layer="3447" to-port="0"/>
		<edge from-layer="3383" from-port="1" to-layer="3463" to-port="0"/>
		<edge from-layer="3383" from-port="1" to-layer="3467" to-port="0"/>
		<edge from-layer="3383" from-port="1" to-layer="3475" to-port="0"/>
		<edge from-layer="3383" from-port="1" to-layer="3411" to-port="0"/>
		<edge from-layer="3383" from-port="1" to-layer="3395" to-port="0"/>
		<edge from-layer="3384" from-port="0" to-layer="3386" to-port="1"/>
		<edge from-layer="3385" from-port="0" to-layer="3386" to-port="2"/>
		<edge from-layer="3386" from-port="3" to-layer="3389" to-port="0"/>
		<edge from-layer="3387" from-port="0" to-layer="3389" to-port="1"/>
		<edge from-layer="3388" from-port="0" to-layer="3389" to-port="2"/>
		<edge from-layer="3389" from-port="3" to-layer="3390" to-port="1"/>
		<edge from-layer="3390" from-port="2" to-layer="3392" to-port="0"/>
		<edge from-layer="3391" from-port="0" to-layer="3392" to-port="1"/>
		<edge from-layer="3392" from-port="2" to-layer="3403" to-port="0"/>
		<edge from-layer="3393" from-port="0" to-layer="3395" to-port="1"/>
		<edge from-layer="3394" from-port="0" to-layer="3395" to-port="2"/>
		<edge from-layer="3394" from-port="0" to-layer="3447" to-port="2"/>
		<edge from-layer="3394" from-port="0" to-layer="3463" to-port="2"/>
		<edge from-layer="3394" from-port="0" to-layer="3411" to-port="2"/>
		<edge from-layer="3395" from-port="3" to-layer="3397" to-port="0"/>
		<edge from-layer="3396" from-port="0" to-layer="3397" to-port="1"/>
		<edge from-layer="3397" from-port="2" to-layer="3399" to-port="0"/>
		<edge from-layer="3397" from-port="2" to-layer="3456" to-port="0"/>
		<edge from-layer="3397" from-port="2" to-layer="3420" to-port="0"/>
		<edge from-layer="3398" from-port="0" to-layer="3399" to-port="1"/>
		<edge from-layer="3399" from-port="2" to-layer="3402" to-port="0"/>
		<edge from-layer="3400" from-port="0" to-layer="3402" to-port="1"/>
		<edge from-layer="3401" from-port="0" to-layer="3402" to-port="2"/>
		<edge from-layer="3402" from-port="3" to-layer="3403" to-port="1"/>
		<edge from-layer="3403" from-port="2" to-layer="3427" to-port="0"/>
		<edge from-layer="3404" from-port="0" to-layer="3405" to-port="0"/>
		<edge from-layer="3405" from-port="1" to-layer="3409" to-port="0"/>
		<edge from-layer="3406" from-port="0" to-layer="3407" to-port="0"/>
		<edge from-layer="3407" from-port="1" to-layer="3408" to-port="1"/>
		<edge from-layer="3408" from-port="2" to-layer="3409" to-port="1"/>
		<edge from-layer="3409" from-port="2" to-layer="3416" to-port="0"/>
		<edge from-layer="3410" from-port="0" to-layer="3411" to-port="1"/>
		<edge from-layer="3411" from-port="3" to-layer="3415" to-port="0"/>
		<edge from-layer="3412" from-port="0" to-layer="3415" to-port="1"/>
		<edge from-layer="3413" from-port="0" to-layer="3415" to-port="2"/>
		<edge from-layer="3414" from-port="0" to-layer="3415" to-port="3"/>
		<edge from-layer="3415" from-port="4" to-layer="3416" to-port="1"/>
		<edge from-layer="3416" from-port="2" to-layer="3418" to-port="0"/>
		<edge from-layer="3417" from-port="0" to-layer="3418" to-port="1"/>
		<edge from-layer="3418" from-port="2" to-layer="3424" to-port="0"/>
		<edge from-layer="3419" from-port="0" to-layer="3420" to-port="1"/>
		<edge from-layer="3420" from-port="2" to-layer="3423" to-port="0"/>
		<edge from-layer="3421" from-port="0" to-layer="3423" to-port="1"/>
		<edge from-layer="3422" from-port="0" to-layer="3423" to-port="2"/>
		<edge from-layer="3423" from-port="3" to-layer="3424" to-port="1"/>
		<edge from-layer="3424" from-port="2" to-layer="3426" to-port="0"/>
		<edge from-layer="3425" from-port="0" to-layer="3426" to-port="1"/>
		<edge from-layer="3426" from-port="2" to-layer="3427" to-port="1"/>
		<edge from-layer="3427" from-port="2" to-layer="3437" to-port="0"/>
		<edge from-layer="3427" from-port="2" to-layer="3428" to-port="0"/>
		<edge from-layer="3428" from-port="1" to-layer="3439" to-port="1"/>
		<edge from-layer="3428" from-port="1" to-layer="3432" to-port="0"/>
		<edge from-layer="3429" from-port="0" to-layer="3432" to-port="1"/>
		<edge from-layer="3430" from-port="0" to-layer="3432" to-port="2"/>
		<edge from-layer="3431" from-port="0" to-layer="3432" to-port="3"/>
		<edge from-layer="3432" from-port="4" to-layer="3434" to-port="0"/>
		<edge from-layer="3433" from-port="0" to-layer="3434" to-port="1"/>
		<edge from-layer="3434" from-port="2" to-layer="3436" to-port="0"/>
		<edge from-layer="3435" from-port="0" to-layer="3436" to-port="1"/>
		<edge from-layer="3436" from-port="2" to-layer="3437" to-port="1"/>
		<edge from-layer="3437" from-port="2" to-layer="3438" to-port="0"/>
		<edge from-layer="3438" from-port="1" to-layer="3439" to-port="0"/>
		<edge from-layer="3439" from-port="2" to-layer="3461" to-port="0"/>
		<edge from-layer="3440" from-port="0" to-layer="3441" to-port="0"/>
		<edge from-layer="3441" from-port="1" to-layer="3445" to-port="0"/>
		<edge from-layer="3442" from-port="0" to-layer="3443" to-port="0"/>
		<edge from-layer="3443" from-port="1" to-layer="3444" to-port="1"/>
		<edge from-layer="3444" from-port="2" to-layer="3445" to-port="1"/>
		<edge from-layer="3445" from-port="2" to-layer="3452" to-port="0"/>
		<edge from-layer="3446" from-port="0" to-layer="3447" to-port="1"/>
		<edge from-layer="3447" from-port="3" to-layer="3451" to-port="0"/>
		<edge from-layer="3448" from-port="0" to-layer="3451" to-port="1"/>
		<edge from-layer="3449" from-port="0" to-layer="3451" to-port="2"/>
		<edge from-layer="3450" from-port="0" to-layer="3451" to-port="3"/>
		<edge from-layer="3451" from-port="4" to-layer="3452" to-port="1"/>
		<edge from-layer="3452" from-port="2" to-layer="3454" to-port="0"/>
		<edge from-layer="3453" from-port="0" to-layer="3454" to-port="1"/>
		<edge from-layer="3454" from-port="2" to-layer="3460" to-port="0"/>
		<edge from-layer="3455" from-port="0" to-layer="3456" to-port="1"/>
		<edge from-layer="3456" from-port="2" to-layer="3459" to-port="0"/>
		<edge from-layer="3457" from-port="0" to-layer="3459" to-port="1"/>
		<edge from-layer="3458" from-port="0" to-layer="3459" to-port="2"/>
		<edge from-layer="3459" from-port="3" to-layer="3460" to-port="1"/>
		<edge from-layer="3460" from-port="2" to-layer="3461" to-port="1"/>
		<edge from-layer="3461" from-port="2" to-layer="3470" to-port="0"/>
		<edge from-layer="3462" from-port="0" to-layer="3463" to-port="1"/>
		<edge from-layer="3463" from-port="3" to-layer="3469" to-port="0"/>
		<edge from-layer="3464" from-port="0" to-layer="3469" to-port="1"/>
		<edge from-layer="3465" from-port="0" to-layer="3467" to-port="1"/>
		<edge from-layer="3466" from-port="0" to-layer="3467" to-port="2"/>
		<edge from-layer="3467" from-port="3" to-layer="3469" to-port="2"/>
		<edge from-layer="3468" from-port="0" to-layer="3469" to-port="3"/>
		<edge from-layer="3469" from-port="4" to-layer="3470" to-port="1"/>
		<edge from-layer="3470" from-port="2" to-layer="3472" to-port="0"/>
		<edge from-layer="3471" from-port="0" to-layer="3472" to-port="1"/>
		<edge from-layer="3472" from-port="2" to-layer="3478" to-port="0"/>
		<edge from-layer="3473" from-port="0" to-layer="3475" to-port="1"/>
		<edge from-layer="3474" from-port="0" to-layer="3475" to-port="2"/>
		<edge from-layer="3475" from-port="3" to-layer="3477" to-port="0"/>
		<edge from-layer="3476" from-port="0" to-layer="3477" to-port="1"/>
		<edge from-layer="3477" from-port="2" to-layer="3478" to-port="1"/>
		<edge from-layer="3478" from-port="2" to-layer="3481" to-port="0"/>
		<edge from-layer="3479" from-port="0" to-layer="3480" to-port="0"/>
		<edge from-layer="3480" from-port="1" to-layer="3481" to-port="1"/>
		<edge from-layer="3481" from-port="2" to-layer="3482" to-port="1"/>
		<edge from-layer="3482" from-port="2" to-layer="3483" to-port="1"/>
		<edge from-layer="3483" from-port="2" to-layer="3489" to-port="0"/>
		<edge from-layer="3483" from-port="2" to-layer="3505" to-port="0"/>
		<edge from-layer="3484" from-port="0" to-layer="3485" to-port="0"/>
		<edge from-layer="3485" from-port="1" to-layer="3504" to-port="0"/>
		<edge from-layer="3486" from-port="0" to-layer="3487" to-port="0"/>
		<edge from-layer="3487" from-port="1" to-layer="3499" to-port="0"/>
		<edge from-layer="3488" from-port="0" to-layer="3489" to-port="1"/>
		<edge from-layer="3489" from-port="2" to-layer="3492" to-port="0"/>
		<edge from-layer="3490" from-port="0" to-layer="3491" to-port="0"/>
		<edge from-layer="3491" from-port="1" to-layer="3492" to-port="1"/>
		<edge from-layer="3492" from-port="2" to-layer="3495" to-port="0"/>
		<edge from-layer="3493" from-port="0" to-layer="3494" to-port="0"/>
		<edge from-layer="3494" from-port="1" to-layer="3495" to-port="1"/>
		<edge from-layer="3495" from-port="2" to-layer="3498" to-port="0"/>
		<edge from-layer="3496" from-port="0" to-layer="3497" to-port="0"/>
		<edge from-layer="3497" from-port="1" to-layer="3498" to-port="1"/>
		<edge from-layer="3498" from-port="2" to-layer="3499" to-port="1"/>
		<edge from-layer="3499" from-port="2" to-layer="3500" to-port="0"/>
		<edge from-layer="3500" from-port="1" to-layer="3503" to-port="0"/>
		<edge from-layer="3501" from-port="0" to-layer="3502" to-port="0"/>
		<edge from-layer="3502" from-port="1" to-layer="3503" to-port="1"/>
		<edge from-layer="3503" from-port="2" to-layer="3504" to-port="1"/>
		<edge from-layer="3504" from-port="2" to-layer="3505" to-port="1"/>
		<edge from-layer="3505" from-port="2" to-layer="3507" to-port="0"/>
		<edge from-layer="3506" from-port="0" to-layer="3507" to-port="1"/>
		<edge from-layer="3507" from-port="2" to-layer="3510" to-port="0"/>
		<edge from-layer="3508" from-port="0" to-layer="3509" to-port="0"/>
		<edge from-layer="3509" from-port="1" to-layer="3510" to-port="1"/>
		<edge from-layer="3510" from-port="2" to-layer="3513" to-port="0"/>
		<edge from-layer="3511" from-port="0" to-layer="3512" to-port="0"/>
		<edge from-layer="3512" from-port="1" to-layer="3513" to-port="1"/>
		<edge from-layer="3513" from-port="2" to-layer="3516" to-port="0"/>
		<edge from-layer="3514" from-port="0" to-layer="3515" to-port="0"/>
		<edge from-layer="3515" from-port="1" to-layer="3516" to-port="1"/>
		<edge from-layer="3516" from-port="2" to-layer="3517" to-port="1"/>
		<edge from-layer="3517" from-port="2" to-layer="3519" to-port="0"/>
		<edge from-layer="3518" from-port="0" to-layer="3519" to-port="1"/>
		<edge from-layer="3519" from-port="2" to-layer="3522" to-port="0"/>
		<edge from-layer="3520" from-port="0" to-layer="3521" to-port="0"/>
		<edge from-layer="3521" from-port="1" to-layer="3522" to-port="1"/>
		<edge from-layer="3522" from-port="2" to-layer="3525" to-port="0"/>
		<edge from-layer="3523" from-port="0" to-layer="3524" to-port="0"/>
		<edge from-layer="3524" from-port="1" to-layer="3525" to-port="1"/>
		<edge from-layer="3525" from-port="2" to-layer="3526" to-port="0"/>
	</edges>
	<meta_data>
		<MO_version value="2022.1.0-7019-cdb9bec7210-releases/2022/1"/>
		<Runtime_version value="2022.1.0-7019-cdb9bec7210-releases/2022/1"/>
		<legacy_path value="False"/>
		<cli_parameters>
			<caffe_parser_path value="DIR"/>
			<compress_fp16 value="True"/>
			<data_type value="FP32"/>
			<disable_nhwc_to_nchw value="False"/>
			<disable_omitting_optional value="False"/>
			<disable_resnet_optimization value="False"/>
			<disable_weights_compression value="False"/>
			<enable_concat_optimization value="False"/>
			<enable_flattening_nested_params value="False"/>
			<enable_ssd_gluoncv value="False"/>
			<extensions value="DIR"/>
			<framework value="onnx"/>
			<freeze_placeholder_with_value value="{}"/>
			<input_model value="DIR/wav2vec2.onnx"/>
			<input_model_is_text value="False"/>
			<k value="DIR/CustomLayersMapping.xml"/>
			<layout value="()"/>
			<layout_values value="{}"/>
			<legacy_mxnet_model value="False"/>
			<log_level value="ERROR"/>
			<mean_scale_values value="{}"/>
			<mean_values value="()"/>
			<model_name value="wav2vec2"/>
			<output_dir value="DIR"/>
			<placeholder_data_types value="{}"/>
			<progress value="False"/>
			<remove_memory value="False"/>
			<remove_output_softmax value="False"/>
			<reverse_input_channels value="False"/>
			<save_params_from_nd value="False"/>
			<scale_values value="()"/>
			<silent value="False"/>
			<source_layout value="()"/>
			<static_shape value="True"/>
			<stream_output value="False"/>
			<target_layout value="()"/>
			<transform value=""/>
			<use_legacy_frontend value="False"/>
			<use_new_frontend value="False"/>
			<unset unset_cli_parameters="batch, counts, disable_fusing, finegrain_fusing, input, input_checkpoint, input_meta_graph, input_proto, input_shape, input_symbol, mean_file, mean_file_offsets, nd_prefix_name, output, placeholder_shapes, pretrained_model_name, saved_model_dir, saved_model_tags, scale, tensorboard_logdir, tensorflow_custom_layer_libraries, tensorflow_custom_operations_config_update, tensorflow_object_detection_api_pipeline_config, tensorflow_use_custom_operations_config, transformations_config"/>
		</cli_parameters>
	</meta_data>
</net>
